Assets/AI/Opponent 67/LPOpponent.onnx (onnx, 285770 bytes, 11 tensors)

discrete_act_size_vector f4 [1, 3]
0	0x40a00000	5.0
1	0x40a00000	5.0
2	0x40800000	4.0

network_body._body_endoder.seq_layers.0.weight f4 [256, 3]
0	0x3ecd2813	0.40069637
1	0xbe309237	-0.17243277
2	0xbecf201a	-0.4045418
3	0xbf265ab4	-0.6498215
4	0x3e468e69	0.19390263
5	0x3f87797a	1.0583947
6	0xbe4f5800	-0.20248413
7	0x3ef64387	0.48098394
8	0xbd79089e	-0.060799234
9	0x3d07e21a	0.03317461
10	0x3f4e40a6	0.80567396
11	0xbed81223	-0.42201337
12	0x3f45204a	0.77002394
13	0xbf1c322b	-0.6101405
14	0x3c0e97ef	0.008703216
15	0xbf69b437	-0.9129061
16	0x3e505470	0.2034471
17	0x3f5007b9	0.81261784
18	0xbea929f6	-0.33039826
19	0xbe90121a	-0.2813881
20	0x3dcd5b17	0.1002714
21	0x3e29eea1	0.16594936
22	0xbf854658	-1.0412092
23	0xbdb5a06d	-0.088684894
24	0xbf4185aa	-0.7559458
25	0x3d8c345a	0.06845923
26	0x3df64e50	0.12026656
27	0xbcec021a	-0.028809596
28	0x3d16efaf	0.036849674
29	0xbfb1cb2b	-1.3890127
30	0x3e17a936	0.14810643
31	0x3dfba668	0.12287599
32	0x3f616148	0.88039064
33	0x3f147fec	0.58007693
34	0x3ec8cc82	0.39218527
35	0x3ec6921e	0.38783354
36	0x3e8f38a8	0.27972913
37	0x3f126be8	0.571959
38	0x3e988f3e	0.29796785
39	0x3e4c622c	0.19959325
40	0x3c9b1327	0.018930031
41	0x3f077f5f	0.5292873
42	0xbe66fee6	-0.22558174
43	0xbe9d726f	-0.30751368
44	0x3f3ca7e9	0.7369371
45	0x3c5c04f8	0.013428919
46	0xbf856f9c	-1.0424685
47	0x3e9b6bb6	0.30355614
48	0x3bae035b	0.0053104586
49	0xbe83ce61	-0.25743392
50	0x3f1cc4b6	0.6123766
51	0xbe91f4f9	-0.28507212
52	0x3d5856cc	0.05281715
53	0xbe0558da	-0.13022175
54	0xbfa6ec21	-1.3040811
55	0xbe77838d	-0.24171276
56	0x3f1d49b7	0.61440605
57	0xbd4d5b62	-0.050135978
58	0x3d0f83bd	0.035037745
59	0xbf2278e0	-0.6346569
60	0x3e6d20ed	0.23157091
61	0xbf0ae5e1	-0.5425702
62	0x3f05a29d	0.52201253
63	0x3fad9e95	1.356402
64	0x3e5e9346	0.21735868
65	0xbf08dc77	-0.534614
66	0xbf147f3a	-0.5800663
67	0xbd57c774	-0.052680448
68	0xbec3757d	-0.38175574
69	0x3f192048	0.5981488
70	0xbf490161	-0.7851773
71	0xbe9e8e5b	-0.30967984
72	0xbed44c53	-0.4146448
73	0x3f0ffa04	0.5624087
74	0x3ee7db69	0.45284584
75	0xbebe599a	-0.37177736
76	0x3e9d142a	0.30679446
77	0xbf2b6639	-0.66952854
78	0xbd729d8d	-0.059232283
79	0xbf6209ad	-0.88296014
80	0xbe92221f	-0.28541657
81	0xbf5d136d	-0.86357766
82	0xbd908ca9	-0.07058079
83	0xbf2395f5	-0.6390069
84	0x3ef5d08e	0.48010677
85	0x3f1c58fd	0.61073285
86	0xbf3220eb	-0.6958148
87	0xbe694848	-0.2278148
88	0xbc99d7e7	-0.018779708
89	0xbf84fd4c	-1.03898
90	0xbf32c301	-0.698288
91	0x3f9bcc48	1.2171717
92	0xbe01b24b	-0.1266567
93	0x3dcc340a	0.09970863
94	0x3dc36c5c	0.09542152
95	0x3de5c03f	0.11218309
96	0x3ed3bc87	0.41354772
97	0xbf48dd4d	-0.7846268
98	0xbf061b65	-0.5238555
99	0xbf2d2c6e	-0.6764592
100	0x3e41188a	0.18857017
101	0x3f1b13c9	0.60577065
102	0x3d213287	0.039354827
103	0xbf7e1d72	-0.9926368
104	0x3e269736	0.1626862
105	0xbddd7069	-0.10812456
106	0x3f53ab1d	0.82682973
107	0xbee088e2	-0.43854433
108	0x3e024819	0.12722816
109	0xbe6451f8	-0.22296894
110	0xbebb4ed9	-0.36583593
111	0xbca125cf	-0.019671349
112	0xbf36470b	-0.7120215
113	0xbf0ce8bb	-0.5504262
114	0x3ea54eb9	0.32286623
115	0xbf884879	-1.0647117
116	0x3f605fd1	0.87646204
117	0xbed9002c	-0.42382944
118	0xbebc180a	-0.3673709
119	0x3eec28f4	0.46124995
120	0xbf094ec8	-0.53635836
121	0x3d27a046	0.040924333
122	0x3e2a2e4b	0.16619222
123	0xbf24ad59	-0.6432701
124	0xbe57cf64	-0.21075207
125	0xbea1a674	-0.31572306
126	0xbefe2615	-0.4963843
127	0x3f37437d	0.71587354
128	0xbe858b10	-0.2608266
129	0x3e78dccd	0.24302979
130	0x3e8113ba	0.25210363
131	0xbee6af6e	-0.45055717
132	0xbdf6539f	-0.12027668
133	0x3e37370e	0.17892095
134	0xbee8860c	-0.4541477
135	0xbf13c594	-0.57723355
136	0x3ed76c54	0.42074835
137	0x3ed02806	0.40655535
138	0x3e95ce71	0.29259065
139	0x3e036715	0.12832291
140	0x3f1de338	0.61674833
141	0xbf652b68	-0.8951936
142	0xbeebbf09	-0.46044186
143	0xbf8567d0	-1.0422306
144	0x3f077457	0.52911896
145	0x3f4deb90	0.80437565
146	0x3f4796df	0.77964586
147	0x3e8b6ea2	0.27232844
148	0xbe3fe2f4	-0.1873892
149	0xbf16c825	-0.58899146
150	0x3f03c64d	0.5147446
151	0xbebcd78a	-0.36883193
152	0xbe98da73	-0.29854164
153	0xbea0b62a	-0.3138898
154	0xbf08e78c	-0.5347831
155	0xbee2066b	-0.44145522
156	0xbed6ac43	-0.419283
157	0x3e742583	0.23842435
158	0x3f2c4c19	0.67303616
159	0xbf1adf8e	-0.6049737
160	0xbf1f686a	-0.622687
161	0xbdc2a50e	-0.09504138
162	0x3eaf0313	0.34182033
163	0x3ef19e3c	0.47191036
164	0xbefb26da	-0.4905308
165	0x3e996a7c	0.29964054
166	0x3f1af2ef	0.6052694
167	0x3fb36343	1.4014667
168	0xbf71ecf4	-0.94502187
169	0x3eff384a	0.49847633
170	0xbe923a08	-0.285599
171	0x3f1b16c7	0.6058163
172	0xbf54cffa	-0.8312985
173	0x3efa30a5	0.48865238
174	0x3c8d19cf	0.01722422
175	0xbe8a1796	-0.2697112
176	0xbefb5b48	-0.4909308
177	0xbeddf07a	-0.43347532
178	0xbd44818d	-0.04797511
179	0xbf037f75	-0.5136636
180	0xbe534ac4	-0.2063399
181	0x3f93d403	1.1549076
182	0x3f04c5b1	0.51864153
183	0xbeb4501a	-0.35217363
184	0xbf1df2f3	-0.61698836
185	0x3e941c66	0.28927916
186	0x3ef0e9a8	0.47053266
187	0x3de806d3	0.113294266
188	0x3e7e1199	0.248114
189	0x3dedc650	0.11610091
190	0xbe603cf9	-0.21898259
191	0x3f180c03	0.5939333
192	0x3ea052ef	0.31313273
193	0x3f65b81a	0.8973404
194	0x3f39e134	0.7260926
195	0x3f680ba6	0.90642774
196	0x3c3bef47	0.011470622
197	0xbef7bfb7	-0.48388454
198	0x3f079cdf	0.5297374
199	0x3f31552f	0.69270605
200	0xbde90a45	-0.11378912
201	0x3f3e9c9f	0.74457735
202	0x3fb34aab	1.4007162
203	0x3f245235	0.6418794
204	0xbe570d43	-0.21001153
205	0x3f4c9db1	0.7992812
206	0xbd39c77c	-0.04535626
207	0xbf6f0626	-0.93368757
208	0x3fa48aab	1.2854818
209	0xbf5adc89	-0.8549276
210	0xbf24c292	-0.6435939
211	0xbd5adb1e	-0.053431623
212	0xbf017118	-0.5056319
213	0x3f3ffe69	0.74997574
214	0x3ee29019	0.44250563
215	0xbf90cfe0	-1.1313438
216	0x3e263e61	0.16234733
217	0xbea929b2	-0.33039623
218	0x3fa77602	1.3082888
219	0x3e17ae9f	0.14812706
220	0x3ec4207b	0.3830603
221	0x3f02d665	0.5110839
222	0xbe57a1bc	-0.2105779
223	0x3f253db2	0.64547265
224	0xbf50ba7e	-0.81534564
225	0x3f154d4f	0.5832109
226	0x3e108669	0.14113773
227	0xbe59bc0e	-0.21263143
228	0x3eedf2f1	0.46474412
229	0xbe97755c	-0.29581726
230	0x3e9ee11f	0.3103113
231	0xbebc2e31	-0.3675399
232	0x3e60a677	0.21938501
233	0xbef1a8fa	-0.4719923
234	0xbe227549	-0.15865053
235	0xbf03f9ec	-0.51553226
236	0xbf7fd88c	-0.999398
237	0xbf5b4318	-0.8564925
238	0x3edb16b9	0.42790774
239	0xbf190a17	-0.5978102
240	0xbdba1842	-0.09086658
241	0xbe83ded1	-0.25755933
242	0xbf0f4a55	-0.55972797
243	0x3e03f4b7	0.1288632
244	0xbdd872a9	-0.10568745
245	0xbe8deb56	-0.2771861
246	0xbfa17b95	-1.2615839
247	0xbdd60f0e	-0.1045209
248	0x3d1229a9	0.03568426
249	0x3f0f176e	0.55895126
250	0xbf3f9e8e	-0.7485131
251	0x3f8ef8cb	1.1169676
252	0xbe527c6f	-0.2055528
253	0x3e2102a9	0.15723671
254	0xbe1a010d	-0.15039463
255	0x3dea11a2	0.114291444

network_body._body_endoder.seq_layers.0.bias f4 [256]
0	0x00000000	0.0
1	0x00000000	0.0
2	0x00000000	0.0
3	0x00000000	0.0
4	0x00000000	0.0
5	0x00000000	0.0
6	0x00000000	0.0
7	0x00000000	0.0
8	0x00000000	0.0
9	0x00000000	0.0
10	0x00000000	0.0
11	0x00000000	0.0
12	0x00000000	0.0
13	0x00000000	0.0
14	0x00000000	0.0
15	0x00000000	0.0
16	0x00000000	0.0
17	0x00000000	0.0
18	0x00000000	0.0
19	0x00000000	0.0
20	0x00000000	0.0
21	0x00000000	0.0
22	0x00000000	0.0
23	0x00000000	0.0
24	0x00000000	0.0
25	0x00000000	0.0
26	0x00000000	0.0
27	0x00000000	0.0
28	0x00000000	0.0
29	0x00000000	0.0
30	0x00000000	0.0
31	0x00000000	0.0
32	0x00000000	0.0
33	0x00000000	0.0
34	0x00000000	0.0
35	0x00000000	0.0
36	0x00000000	0.0
37	0x00000000	0.0
38	0x00000000	0.0
39	0x00000000	0.0
40	0x00000000	0.0
41	0x00000000	0.0
42	0x00000000	0.0
43	0x00000000	0.0
44	0x00000000	0.0
45	0x00000000	0.0
46	0x00000000	0.0
47	0x00000000	0.0
48	0x00000000	0.0
49	0x00000000	0.0
50	0x00000000	0.0
51	0x00000000	0.0
52	0x00000000	0.0
53	0x00000000	0.0
54	0x00000000	0.0
55	0x00000000	0.0
56	0x00000000	0.0
57	0x00000000	0.0
58	0x00000000	0.0
59	0x00000000	0.0
60	0x00000000	0.0
61	0x00000000	0.0
62	0x00000000	0.0
63	0x00000000	0.0
64	0x00000000	0.0
65	0x00000000	0.0
66	0x00000000	0.0
67	0x00000000	0.0
68	0x00000000	0.0
69	0x00000000	0.0
70	0x00000000	0.0
71	0x00000000	0.0
72	0x00000000	0.0
73	0x00000000	0.0
74	0x00000000	0.0
75	0x00000000	0.0
76	0x00000000	0.0
77	0x00000000	0.0
78	0x00000000	0.0
79	0x00000000	0.0
80	0x00000000	0.0
81	0x00000000	0.0
82	0x00000000	0.0
83	0x00000000	0.0
84	0x00000000	0.0
85	0x00000000	0.0
86	0x00000000	0.0
87	0x00000000	0.0
88	0x00000000	0.0
89	0x00000000	0.0
90	0x00000000	0.0
91	0x00000000	0.0
92	0x00000000	0.0
93	0x00000000	0.0
94	0x00000000	0.0
95	0x00000000	0.0
96	0x00000000	0.0
97	0x00000000	0.0
98	0x00000000	0.0
99	0x00000000	0.0
100	0x00000000	0.0
101	0x00000000	0.0
102	0x00000000	0.0
103	0x00000000	0.0
104	0x00000000	0.0
105	0x00000000	0.0
106	0x00000000	0.0
107	0x00000000	0.0
108	0x00000000	0.0
109	0x00000000	0.0
110	0x00000000	0.0
111	0x00000000	0.0
112	0x00000000	0.0
113	0x00000000	0.0
114	0x00000000	0.0
115	0x00000000	0.0
116	0x00000000	0.0
117	0x00000000	0.0
118	0x00000000	0.0
119	0x00000000	0.0
120	0x00000000	0.0
121	0x00000000	0.0
122	0x00000000	0.0
123	0x00000000	0.0
124	0x00000000	0.0
125	0x00000000	0.0
126	0x00000000	0.0
127	0x00000000	0.0
128	0x00000000	0.0
129	0x00000000	0.0
130	0x00000000	0.0
131	0x00000000	0.0
132	0x00000000	0.0
133	0x00000000	0.0
134	0x00000000	0.0
135	0x00000000	0.0
136	0x00000000	0.0
137	0x00000000	0.0
138	0x00000000	0.0
139	0x00000000	0.0
140	0x00000000	0.0
141	0x00000000	0.0
142	0x00000000	0.0
143	0x00000000	0.0
144	0x00000000	0.0
145	0x00000000	0.0
146	0x00000000	0.0
147	0x00000000	0.0
148	0x00000000	0.0
149	0x00000000	0.0
150	0x00000000	0.0
151	0x00000000	0.0
152	0x00000000	0.0
153	0x00000000	0.0
154	0x00000000	0.0
155	0x00000000	0.0
156	0x00000000	0.0
157	0x00000000	0.0
158	0x00000000	0.0
159	0x00000000	0.0
160	0x00000000	0.0
161	0x00000000	0.0
162	0x00000000	0.0
163	0x00000000	0.0
164	0x00000000	0.0
165	0x00000000	0.0
166	0x00000000	0.0
167	0x00000000	0.0
168	0x00000000	0.0
169	0x00000000	0.0
170	0x00000000	0.0
171	0x00000000	0.0
172	0x00000000	0.0
173	0x00000000	0.0
174	0x00000000	0.0
175	0x00000000	0.0
176	0x00000000	0.0
177	0x00000000	0.0
178	0x00000000	0.0
179	0x00000000	0.0
180	0x00000000	0.0
181	0x00000000	0.0
182	0x00000000	0.0
183	0x00000000	0.0
184	0x00000000	0.0
185	0x00000000	0.0
186	0x00000000	0.0
187	0x00000000	0.0
188	0x00000000	0.0
189	0x00000000	0.0
190	0x00000000	0.0
191	0x00000000	0.0
192	0x00000000	0.0
193	0x00000000	0.0
194	0x00000000	0.0
195	0x00000000	0.0
196	0x00000000	0.0
197	0x00000000	0.0
198	0x00000000	0.0
199	0x00000000	0.0
200	0x00000000	0.0
201	0x00000000	0.0
202	0x00000000	0.0
203	0x00000000	0.0
204	0x00000000	0.0
205	0x00000000	0.0
206	0x00000000	0.0
207	0x00000000	0.0
208	0x00000000	0.0
209	0x00000000	0.0
210	0x00000000	0.0
211	0x00000000	0.0
212	0x00000000	0.0
213	0x00000000	0.0
214	0x00000000	0.0
215	0x00000000	0.0
216	0x00000000	0.0
217	0x00000000	0.0
218	0x00000000	0.0
219	0x00000000	0.0
220	0x00000000	0.0
221	0x00000000	0.0
222	0x00000000	0.0
223	0x00000000	0.0
224	0x00000000	0.0
225	0x00000000	0.0
226	0x00000000	0.0
227	0x00000000	0.0
228	0x00000000	0.0
229	0x00000000	0.0
230	0x00000000	0.0
231	0x00000000	0.0
232	0x00000000	0.0
233	0x00000000	0.0
234	0x00000000	0.0
235	0x00000000	0.0
236	0x00000000	0.0
237	0x00000000	0.0
238	0x00000000	0.0
239	0x00000000	0.0
240	0x00000000	0.0
241	0x00000000	0.0
242	0x00000000	0.0
243	0x00000000	0.0
244	0x00000000	0.0
245	0x00000000	0.0
246	0x00000000	0.0
247	0x00000000	0.0
248	0x00000000	0.0
249	0x00000000	0.0
250	0x00000000	0.0
251	0x00000000	0.0
252	0x00000000	0.0
253	0x00000000	0.0
254	0x00000000	0.0
255	0x00000000	0.0

network_body._body_endoder.seq_layers.2.weight f4 [256, 256]
0	0x3dc78b05	0.09743313
1	0x3e398132	0.1811569
2	0x3dc4f953	0.09617867
3	0xbc6635e8	-0.014050938
4	0xbcb5421c	-0.02212625
5	0x3dd06914	0.10176292
6	0x3db38974	0.087664515
7	0xbd6c229f	-0.057650205
8	0xbd7cdaa5	-0.061731953
9	0x3b8540c6	0.0040665595
10	0x3da2ae13	0.07943358
11	0x3c96be6d	0.018401349
12	0x3e0f5863	0.1399856
13	0x3d92b1ec	0.07162842
14	0xbd79b355	-0.06096204
15	0xbd9d2d46	-0.07674651
16	0xbd4ad356	-0.049517952
17	0xbc61e345	-0.013787095
18	0xbd2ce8b8	-0.042214125
19	0x3d98a993	0.07454219
20	0x3d6bbfb8	0.057555884
21	0xbdd18d5c	-0.1023204
22	0x3d1272d8	0.035754055
23	0xbdd492a7	-0.10379534
24	0x3d03c87d	0.032173622
25	0x3c8a85c3	0.016909486
26	0xbe070d3a	-0.1318864
27	0xbd69a319	-0.057040308
28	0x3e1c1530	0.15242457
29	0xbd802606	-0.062572524
30	0x3d888c83	0.066674255
31	0x3daea4f3	0.08527555
32	0xbd83cdfa	-0.06435771
33	0x3a72fbad	0.000926907
34	0xbc8bde3c	-0.017073743
35	0x3bdedf7e	0.0068015447
36	0x3ce5bd01	0.028044226
37	0x3da102f2	0.0786189
38	0xbdb3f696	-0.08787267
39	0x3cdff2bb	0.027337423
40	0x3cc5f212	0.02416328
41	0x3c9a4519	0.018831776
42	0xbd16172a	-0.036643185
43	0xbd83886d	-0.064225055
44	0xbc47f376	-0.012204042
45	0xbd034700	-0.032050133
46	0xbc078b7a	-0.008273
47	0xbb4b3932	-0.0031009433
48	0xbb5453b1	-0.0032398517
49	0xbcc2e669	-0.023791509
50	0xbd6bd5c5	-0.057576913
51	0x3b5b2b67	0.0033442618
52	0x3e0f8aac	0.14017743
53	0xbdc22a51	-0.094807275
54	0xbd03e375	-0.03219934
55	0xbbb584bd	-0.0055395053
56	0xbca1b3f0	-0.019739121
57	0x3cd2d0a2	0.02573425
58	0x3caa1f83	0.02076698
59	0x3d157f14	0.036498144
60	0xbcdae2de	-0.026719507
61	0x3cbbb7a0	0.022914708
62	0xbdc23ffd	-0.09484861
63	0x3d0d6d91	0.03452832
64	0x3d06566a	0.032797255
65	0x3d9e8e20	0.07741952
66	0xbd4db002	-0.050216682
67	0x3cfa9132	0.030586813
68	0xba5ddfee	-0.0008463849
69	0xbc7fa202	-0.0156025905
70	0xbcd19205	-0.025582323
71	0xbdbd502c	-0.09243807
72	0x3d70a42e	0.058750324
73	0x3dbb90b3	0.091584586
74	0x3c00f60b	0.007871161
75	0xbccfeea6	-0.025382351
76	0x3d2a5383	0.04158355
77	0x3cfb75c3	0.030695802
78	0xbd533824	-0.05156721
79	0xbda466f8	-0.08027452
80	0x3c41aee5	0.011821483
81	0x3d8ef0b1	0.06979502
82	0x3c97a1e4	0.018509813
83	0x3bfdbf08	0.00774372
84	0xbd29f0d2	-0.04148943
85	0xbd859ada	-0.06523676
86	0xbdeb003c	-0.11474654
87	0x3cc07e46	0.023497712
88	0xbbdaa4ce	-0.0066724783
89	0xbcde58fd	-0.027142042
90	0xbc7ec8cb	-0.015550802
91	0x3d11edc0	0.035627127
92	0x3d68e34c	0.056857392
93	0x3cd8d0c9	0.026466744
94	0x3d663392	0.056201525
95	0xbd82ce22	-0.06386973
96	0x3d25ff89	0.0405269
97	0xbd2eff40	-0.042723894
98	0x3c8186f5	0.015811423
99	0xbccd4938	-0.025059327
100	0xbd1ad2e1	-0.037798766
101	0xbe02213f	-0.12707995
102	0xbcb4c7da	-0.022067953
103	0xbc63f197	-0.01391258
104	0xbd460136	-0.048341
105	0x3d6d5221	0.057939652
106	0xbd542d15	-0.051800806
107	0x3d3bcb68	0.04584828
108	0xbca3b89d	-0.019985491
109	0x3d4e3712	0.050345488
110	0x3cedbbea	0.029020268
111	0xbda50dbf	-0.080592625
112	0x391ebd18	0.00015138497
113	0x3c27c3bf	0.010239541
114	0x3ce10b1d	0.02747112
115	0xbd3bcd24	-0.045849934
116	0xbd6f255c	-0.058385238
117	0xbd9046aa	-0.07044728
118	0x3c4ba5ea	0.012429694
119	0xbda02d0d	-0.07821093
120	0x3dc4cede	0.09609769
121	0xbd37264d	-0.04471426
122	0xbd14d294	-0.036333635
123	0xbcae06dc	-0.021243505
124	0x3d91304d	0.07089291
125	0xbde7cb07	-0.11318021
126	0xbd81f0fc	-0.06344792
127	0xbc790c83	-0.015200737
128	0x3d5067a4	0.05088009
129	0x3d9ed854	0.07756105
130	0x3cc7885a	0.02435701
131	0x3da70358	0.08154935
132	0x3ccca2c9	0.024979966
133	0xbc4437a7	-0.011976159
134	0xbd35f746	-0.04442527
135	0x3d0a4259	0.03375468
136	0x3ccff3de	0.02538484
137	0x3d4766c6	0.048681997
138	0x3da55d48	0.080744326
139	0x3d951d91	0.0728103
140	0xbc3cc10f	-0.011520638
141	0x3dd06903	0.101762794
142	0x3d940ee2	0.07229401
143	0x3dcfd102	0.10147287
144	0x3d93644b	0.07196864
145	0x3d0d616b	0.034516733
146	0x3e186d75	0.14885505
147	0xbd9d4a08	-0.07680136
148	0xbc3d2ba8	-0.011546053
149	0xbda0fef0	-0.078611255
150	0xbbf701af	-0.0075380425
151	0x3d898dbb	0.06716486
152	0x3dddd711	0.10832036
153	0xbd281569	-0.041036043
154	0xbc708039	-0.014679008
155	0x3d46153a	0.048360087
156	0xbc4571d6	-0.012051066
157	0xbda56533	-0.08075943
158	0x3e0ba4f0	0.13637137
159	0xbe1b22af	-0.1514995
160	0xbdae31c6	-0.08505587
161	0x3d9ceda5	0.076625146
162	0x3bff1f78	0.007785734
163	0xbd5551c6	-0.05207994
164	0x3db95940	0.09050226
165	0xbdc20a38	-0.09474605
166	0x3dd48845	0.10377554
167	0xbca3b9a5	-0.019985983
168	0x3d2362e3	0.039889228
169	0x3d09595a	0.033532478
170	0x3c936bc2	0.017995719
171	0x3cbd41de	0.023102697
172	0x3d6197c2	0.05507637
173	0xbca683cc	-0.020326518
174	0x3dbc1824	0.09184292
175	0xbd61edf6	-0.055158578
176	0xbcdfcdee	-0.027319875
177	0xbd5c43ea	-0.053775705
178	0x3d277576	0.040883504
179	0x3d2aa506	0.041661285
180	0xbba47c64	-0.0050197113
181	0x3d1d517c	0.038407788
182	0x3cd67ae9	0.026181655
183	0xbd3a68a3	-0.045509946
184	0x3e0b01c4	0.13574892
185	0x3c75b86c	0.014997583
186	0x3d70f8c1	0.05883098
187	0x3ce23103	0.027611261
188	0xbd82c3b0	-0.06384981
189	0x3d41c0ce	0.047303014
190	0x3d59b92f	0.05315512
191	0xbda8249d	-0.082101084
192	0xbd3c7c1c	-0.046016797
193	0xbd135379	-0.035968278
194	0xbbb6b529	-0.005575795
195	0xbaf6f220	-0.001884047
196	0xbca8f8fd	-0.02062654
197	0xbd8510fe	-0.06497382
198	0xbd767733	-0.06017227
199	0xbc133539	-0.008984857
200	0x3e103f8d	0.14086743
201	0x3d73f04e	0.059555344
202	0x3d5912ec	0.05299656
203	0xbca9b9c3	-0.02071846
204	0x3d1cb4cb	0.038258355
205	0xbd1f5f38	-0.038909167
206	0x3db68bfa	0.08913417
207	0xba7d8c4a	-0.0009672089
208	0xbc892a23	-0.016743725
209	0xbd13b9b5	-0.036065776
210	0x3dd87dbe	0.105708584
211	0x3d9cbc01	0.076530464
212	0x3cb039bf	0.02151191
213	0xbd56ab30	-0.05240935
214	0x3d183e02	0.03716851
215	0xbe074663	-0.13210444
216	0xbd85a80a	-0.065261915
217	0xbdd081f0	-0.101810336
218	0xbd336160	-0.043794036
219	0xbd21c6d7	-0.03949627
220	0x3c82807b	0.015930405
221	0xbd8312b4	-0.06400052
222	0xbdb104c3	-0.08643486
223	0x3b07e8ec	0.0020738197
224	0x3c98caf1	0.018651458
225	0x3d09ccf7	0.033642735
226	0xbdb76358	-0.08954495
227	0x3db4ca2a	0.08827622
228	0xbdd58c48	-0.10427147
229	0x3d96e445	0.07367758
230	0x3e198d35	0.14995272
231	0xbd83a173	-0.06427278
232	0xbd1eb954	-0.03875096
233	0x3aa89727	0.001286243
234	0x3e014a6e	0.12626049
235	0x3ca1d626	0.019755434
236	0x3e18aaf2	0.1490896
237	0x3c1a428f	0.009415283
238	0xbc9d7a94	-0.019223489
239	0xbbf5cf46	-0.0075015156
240	0x3d7734cf	0.060353097
241	0xbcc55cf9	-0.024092184
242	0x3d820212	0.06348051
243	0xbdb7cf4f	-0.08975088
244	0xbd0cddf1	-0.034391347
245	0x3d3f784f	0.046745595
246	0xbd095feb	-0.03353874
247	0x3cd8ce3d	0.02646553
248	0x3d1ef509	0.038807902
249	0xbcdbab59	-0.026815103
250	0xbdd32570	-0.10309875
251	0xbdbfeda8	-0.09371501
252	0x3e0b4216	0.13599429
253	0xbc873974	-0.016506888
254	0xbdc4be17	-0.09606569
255	0xbddc7509	-0.1076451

network_body._body_endoder.seq_layers.2.bias f4 [256]
0	0x00000000	0.0
1	0x00000000	0.0
2	0x00000000	0.0
3	0x00000000	0.0
4	0x00000000	0.0
5	0x00000000	0.0
6	0x00000000	0.0
7	0x00000000	0.0
8	0x00000000	0.0
9	0x00000000	0.0
10	0x00000000	0.0
11	0x00000000	0.0
12	0x00000000	0.0
13	0x00000000	0.0
14	0x00000000	0.0
15	0x00000000	0.0
16	0x00000000	0.0
17	0x00000000	0.0
18	0x00000000	0.0
19	0x00000000	0.0
20	0x00000000	0.0
21	0x00000000	0.0
22	0x00000000	0.0
23	0x00000000	0.0
24	0x00000000	0.0
25	0x00000000	0.0
26	0x00000000	0.0
27	0x00000000	0.0
28	0x00000000	0.0
29	0x00000000	0.0
30	0x00000000	0.0
31	0x00000000	0.0
32	0x00000000	0.0
33	0x00000000	0.0
34	0x00000000	0.0
35	0x00000000	0.0
36	0x00000000	0.0
37	0x00000000	0.0
38	0x00000000	0.0
39	0x00000000	0.0
40	0x00000000	0.0
41	0x00000000	0.0
42	0x00000000	0.0
43	0x00000000	0.0
44	0x00000000	0.0
45	0x00000000	0.0
46	0x00000000	0.0
47	0x00000000	0.0
48	0x00000000	0.0
49	0x00000000	0.0
50	0x00000000	0.0
51	0x00000000	0.0
52	0x00000000	0.0
53	0x00000000	0.0
54	0x00000000	0.0
55	0x00000000	0.0
56	0x00000000	0.0
57	0x00000000	0.0
58	0x00000000	0.0
59	0x00000000	0.0
60	0x00000000	0.0
61	0x00000000	0.0
62	0x00000000	0.0
63	0x00000000	0.0
64	0x00000000	0.0
65	0x00000000	0.0
66	0x00000000	0.0
67	0x00000000	0.0
68	0x00000000	0.0
69	0x00000000	0.0
70	0x00000000	0.0
71	0x00000000	0.0
72	0x00000000	0.0
73	0x00000000	0.0
74	0x00000000	0.0
75	0x00000000	0.0
76	0x00000000	0.0
77	0x00000000	0.0
78	0x00000000	0.0
79	0x00000000	0.0
80	0x00000000	0.0
81	0x00000000	0.0
82	0x00000000	0.0
83	0x00000000	0.0
84	0x00000000	0.0
85	0x00000000	0.0
86	0x00000000	0.0
87	0x00000000	0.0
88	0x00000000	0.0
89	0x00000000	0.0
90	0x00000000	0.0
91	0x00000000	0.0
92	0x00000000	0.0
93	0x00000000	0.0
94	0x00000000	0.0
95	0x00000000	0.0
96	0x00000000	0.0
97	0x00000000	0.0
98	0x00000000	0.0
99	0x00000000	0.0
100	0x00000000	0.0
101	0x00000000	0.0
102	0x00000000	0.0
103	0x00000000	0.0
104	0x00000000	0.0
105	0x00000000	0.0
106	0x00000000	0.0
107	0x00000000	0.0
108	0x00000000	0.0
109	0x00000000	0.0
110	0x00000000	0.0
111	0x00000000	0.0
112	0x00000000	0.0
113	0x00000000	0.0
114	0x00000000	0.0
115	0x00000000	0.0
116	0x00000000	0.0
117	0x00000000	0.0
118	0x00000000	0.0
119	0x00000000	0.0
120	0x00000000	0.0
121	0x00000000	0.0
122	0x00000000	0.0
123	0x00000000	0.0
124	0x00000000	0.0
125	0x00000000	0.0
126	0x00000000	0.0
127	0x00000000	0.0
128	0x00000000	0.0
129	0x00000000	0.0
130	0x00000000	0.0
131	0x00000000	0.0
132	0x00000000	0.0
133	0x00000000	0.0
134	0x00000000	0.0
135	0x00000000	0.0
136	0x00000000	0.0
137	0x00000000	0.0
138	0x00000000	0.0
139	0x00000000	0.0
140	0x00000000	0.0
141	0x00000000	0.0
142	0x00000000	0.0
143	0x00000000	0.0
144	0x00000000	0.0
145	0x00000000	0.0
146	0x00000000	0.0
147	0x00000000	0.0
148	0x00000000	0.0
149	0x00000000	0.0
150	0x00000000	0.0
151	0x00000000	0.0
152	0x00000000	0.0
153	0x00000000	0.0
154	0x00000000	0.0
155	0x00000000	0.0
156	0x00000000	0.0
157	0x00000000	0.0
158	0x00000000	0.0
159	0x00000000	0.0
160	0x00000000	0.0
161	0x00000000	0.0
162	0x00000000	0.0
163	0x00000000	0.0
164	0x00000000	0.0
165	0x00000000	0.0
166	0x00000000	0.0
167	0x00000000	0.0
168	0x00000000	0.0
169	0x00000000	0.0
170	0x00000000	0.0
171	0x00000000	0.0
172	0x00000000	0.0
173	0x00000000	0.0
174	0x00000000	0.0
175	0x00000000	0.0
176	0x00000000	0.0
177	0x00000000	0.0
178	0x00000000	0.0
179	0x00000000	0.0
180	0x00000000	0.0
181	0x00000000	0.0
182	0x00000000	0.0
183	0x00000000	0.0
184	0x00000000	0.0
185	0x00000000	0.0
186	0x00000000	0.0
187	0x00000000	0.0
188	0x00000000	0.0
189	0x00000000	0.0
190	0x00000000	0.0
191	0x00000000	0.0
192	0x00000000	0.0
193	0x00000000	0.0
194	0x00000000	0.0
195	0x00000000	0.0
196	0x00000000	0.0
197	0x00000000	0.0
198	0x00000000	0.0
199	0x00000000	0.0
200	0x00000000	0.0
201	0x00000000	0.0
202	0x00000000	0.0
203	0x00000000	0.0
204	0x00000000	0.0
205	0x00000000	0.0
206	0x00000000	0.0
207	0x00000000	0.0
208	0x00000000	0.0
209	0x00000000	0.0
210	0x00000000	0.0
211	0x00000000	0.0
212	0x00000000	0.0
213	0x00000000	0.0
214	0x00000000	0.0
215	0x00000000	0.0
216	0x00000000	0.0
217	0x00000000	0.0
218	0x00000000	0.0
219	0x00000000	0.0
220	0x00000000	0.0
221	0x00000000	0.0
222	0x00000000	0.0
223	0x00000000	0.0
224	0x00000000	0.0
225	0x00000000	0.0
226	0x00000000	0.0
227	0x00000000	0.0
228	0x00000000	0.0
229	0x00000000	0.0
230	0x00000000	0.0
231	0x00000000	0.0
232	0x00000000	0.0
233	0x00000000	0.0
234	0x00000000	0.0
235	0x00000000	0.0
236	0x00000000	0.0
237	0x00000000	0.0
238	0x00000000	0.0
239	0x00000000	0.0
240	0x00000000	0.0
241	0x00000000	0.0
242	0x00000000	0.0
243	0x00000000	0.0
244	0x00000000	0.0
245	0x00000000	0.0
246	0x00000000	0.0
247	0x00000000	0.0
248	0x00000000	0.0
249	0x00000000	0.0
250	0x00000000	0.0
251	0x00000000	0.0
252	0x00000000	0.0
253	0x00000000	0.0
254	0x00000000	0.0
255	0x00000000	0.0

action_model._discrete_distribution.branches.0.weight f4 [5, 256]
0	0x3c56291d	0.013071326
1	0x3b99743f	0.004683047
2	0x3b985e42	0.0046499083
3	0x3a7a9772	0.000955931
4	0xbc26363e	-0.010144768
5	0xbb17fd57	-0.0023191774
6	0x3b64dcba	0.0034921602
7	0x3c273b57	0.010207019
8	0x3a971a05	0.001152814
9	0x3ac7da6f	0.0015247593
10	0x3af52e42	0.0018705803
11	0x3b594e2a	0.0033158162
12	0x3b939236	0.0045035137
13	0x3a5559dd	0.0008138696
14	0x3a34be1a	0.00068947824
15	0xbb9074e7	-0.004408467
16	0xbbf02f28	-0.00732984
17	0xbad11085	-0.0015950358
18	0x3b5a00e8	0.00332647
19	0x3bc65a33	0.006053233
20	0x3a17c8f4	0.0005790137
21	0x3b62f773	0.0034632355
22	0xbc69eba8	-0.014277376
23	0x3be5629b	0.00700028
24	0x3b60db3f	0.0034310368
25	0x3b52b1ff	0.003214955
26	0xbb450ed2	-0.0030068648
27	0x3bb09165	0.005388426
28	0x39cf7fb8	0.00039577275
29	0x38d63b0d	0.00010215314
30	0xba09bfa0	-0.00052546896
31	0xbbdc99db	-0.006732208
32	0x3c174747	0.009233302
33	0xbab988fa	-0.0014155202
34	0x3a13413b	0.0005617325
35	0x3b89e808	0.0042085685
36	0xbb3db22f	-0.0028945317
37	0xbc04a4c1	-0.008095921
38	0xbb8b7cfb	-0.004256842
39	0x3c1eeefb	0.009700532
40	0x3c13fc3b	0.009032304
41	0x3c0e4916	0.008684417
42	0xbb801364	-0.0039085615
43	0xbc0a2a00	-0.008432865
44	0x3beec420	0.0072865635
45	0xbc3e8be6	-0.011630034
46	0x3b994129	0.004676957
47	0xbb35c9d3	-0.0027738705
48	0xbb65d28b	-0.003506812
49	0xbbc35d7f	-0.0059620733
50	0xbbc0f7cc	-0.0058889147
51	0x3c01f43a	0.007931763
52	0x3b57d720	0.003293462
53	0x3bb0c0da	0.0053940834
54	0xbb82e290	-0.0039942935
55	0x3b219f8f	0.0024661755
56	0x3ab74b07	0.0013984152
57	0xbbf5a075	-0.0074959346
58	0xbc1a75ca	-0.009427497
59	0xbba6999a	-0.0050842287
60	0x3c25cffa	0.010120386
61	0xbb4d9a65	-0.0031372544
62	0xbcbc3f24	-0.022979327
63	0x3c0d7b17	0.008635304
64	0xba5d3808	-0.000843883
65	0x399160ab	0.00027728578
66	0xbafca3db	-0.0019274907
67	0x3be9d7af	0.007136307
68	0x3af58a53	0.001873324
69	0x3b61b66f	0.0034441014
70	0x3b3c30be	0.0028715576
71	0xbb1956f8	-0.0023397785
72	0x3acf5c97	0.0015820441
73	0xbbae4483	-0.005318226
74	0x3aa624fb	0.0012675816
75	0x3b554313	0.00325412
76	0x3c032a2c	0.00800566
77	0x3b7284ba	0.003700538
78	0x3bd18e82	0.006395162
79	0xbc016b8b	-0.007899175
80	0x3a001664	0.0004886149
81	0x3b96b207	0.004598859
82	0xbc5aed2d	-0.013362211
83	0xba22b02b	-0.00062060606
84	0x3b1c6be7	0.0023868026
85	0x3b86e03d	0.0041160868
86	0x3b759c5f	0.0037477238
87	0xbc3b98cb	-0.011450003
88	0x3abafe1d	0.0014266405
89	0x3c08e69e	0.008355765
90	0x3b28d7db	0.0025763426
91	0x3b6014d5	0.0034192104
92	0xbc3b5854	-0.011434633
93	0x3b81bb64	0.0039591063
94	0xbc0ce433	-0.008599329
95	0x3bc3078b	0.005951827
96	0x3c41096c	0.0117820315
97	0x3bc46cab	0.0059943995
98	0xbbffb787	-0.0078038606
99	0x3a77142b	0.00094253075
100	0xbbbd6940	-0.005780369
101	0x3b37842a	0.002800236
102	0x3ba20c62	0.004945324
103	0xbbea6c22	-0.0071540037
104	0x3c5411e0	0.012943715
105	0xbc294ab6	-0.010332754
106	0xbb3c09ef	-0.0028692444
107	0xbbfa3b5b	-0.0076364703
108	0x3b6e664a	0.0036376887
109	0x3b92dd1c	0.0044819247
110	0xbc68c823	-0.014207873
111	0x3b904c2a	0.0044036107
112	0xbb4e4af5	-0.0031477783
113	0xbbf06efb	-0.0073374487
114	0x3a24ef77	0.00062917866
115	0xbbefba1d	-0.0073158876
116	0xbbb3e860	-0.0054903477
117	0x3ba532e7	0.0050414684
118	0xbaa7347f	-0.0012756734
119	0x3a82d803	0.0009982589
120	0xba8703e9	-0.0010300848
121	0x3aeff75f	0.0018307975
122	0xbb5d52a3	-0.003377118
123	0xba9840a9	-0.001161595
124	0x3b50eca5	0.0031879332
125	0x3bc1c913	0.0059138625
126	0x3b37b757	0.0028032863
127	0x3bac643e	0.0052609732
128	0xbaa1aed9	-0.0012335434
129	0xbbf84a6d	-0.0075772316
130	0x3c4886be	0.012239156
131	0xbb8c549b	-0.0042825467
132	0x3ac66166	0.0015135228
133	0xbbcd4e35	-0.0062654265
134	0xbc33f2e5	-0.010983204
135	0x3bde8333	0.0067905425
136	0xbb8cc339	-0.0042957333
137	0x3c1707ff	0.009218215
138	0xbba3803a	-0.004989651
139	0xbb2257a1	-0.002477147
140	0xb98fec1b	-0.00027450998
141	0xbba6a805	-0.0050859475
142	0x3b9b8493	0.0047460287
143	0xbc2503a2	-0.010071667
144	0xbb6173ed	-0.0034401373
145	0x3b854353	0.0040668636
146	0x3ba7a962	0.0051166276
147	0xbc13f53e	-0.009030638
148	0xbc318e7b	-0.010837193
149	0x3c01439c	0.0078896545
150	0xbbe36eda	-0.006940705
151	0xbbe0d4a0	-0.0068612844
152	0x3c2303f1	0.00994967
153	0x3bc1e7ae	0.005917511
154	0x3c19af20	0.009380132
155	0xbbaba96a	-0.0052387016
156	0x3a92e044	0.0011205752
157	0x3ba8f1eb	0.005155792
158	0xb9f8f027	-0.00047481174
159	0x3c03bcf3	0.0080406545
160	0x3c164801	0.0091724405
161	0x3c14fc9b	0.009093429
162	0x3c2cb07a	0.010540122
163	0xbb95a41f	-0.004566684
164	0x3bbd2250	0.0057719126
165	0x3b428d3b	0.002968623
166	0xbc2ba171	-0.010475502
167	0x3c0f9f56	0.008766016
168	0x3bd35545	0.006449374
169	0x3b917986	0.0044395356
170	0xbc001fe7	-0.007820106
171	0xbc028d3b	-0.007968242
172	0xbc67296b	-0.014108996
173	0xbb725f75	-0.0036983166
174	0x3b1355d5	0.002248158
175	0x3c28ad69	0.01029525
176	0x3c291a6a	0.010321239
177	0xbbbbe880	-0.0057345033
178	0x3a0b8c25	0.00053233124
179	0xbb83c0a3	-0.004020767
180	0xbb5ed985	-0.0034004163
181	0xbc1659a1	-0.009176643
182	0xbb863b28	-0.0040964074
183	0x3be08d30	0.0068527684
184	0x3b9830b4	0.0046444777
185	0xb8b94a9c	-8.8353845e-05
186	0xbb06e794	-0.0020584809
187	0x3b2dbfb4	0.002651197
188	0x3c38f394	0.011288542
189	0x3adb4a0b	0.001673044
190	0xb87fe592	-6.101054e-05
191	0x39e1d6fd	0.00043075523
192	0xb7bbee28	-2.2403037e-05
193	0xbb510f1f	-0.0031899882
194	0x3b804f9e	0.003915741
195	0x3bc097ce	0.0058774715
196	0x3a9a2937	0.001176155
197	0xbbf3e038	-0.0074425004
198	0x3bf8bdf7	0.007591005
199	0x3b9aa09a	0.004718852
200	0x3c31f62d	0.010861916
201	0xbbc24597	-0.005928706
202	0xbc435825	-0.011922871
203	0xbc086975	-0.008325924
204	0xbc01aa5c	-0.007914152
205	0xbbb0c7ae	-0.0053948974
206	0x3be129da	0.006871444
207	0xbad7f523	-0.0016476255
208	0xbaa996fb	-0.0012938672
209	0x3b5969d0	0.0033174641
210	0x3ac439d7	0.0014970851
211	0x3bb5c552	0.005547204
212	0x3ae85c3a	0.0017727681
213	0xbb9a3f7f	-0.0047072764
214	0x3b13a66a	0.002252961
215	0xbc24cff8	-0.010059349
216	0xbc56af87	-0.013103372
217	0x3b612af0	0.0034357868
218	0xbc4ce858	-0.012506567
219	0x3c1a8937	0.009432129
220	0x3958c147	0.00020671367
221	0x3ba2e0f7	0.0049706656
222	0xbc47f6af	-0.01220481
223	0x3c32a925	0.010904585
224	0x3be87343	0.0070938184
225	0x3c1fb64a	0.009748051
226	0xbc32fad1	-0.010924057
227	0x3c24be1b	0.01005509
228	0xba8f5c3e	-0.0010937524
229	0x3a933773	0.0011231735
230	0x394e70f7	0.00019687774
231	0xbc25760a	-0.0100989435
232	0x39b06e30	0.00033651432
233	0x3ba45ed7	0.0050161886
234	0x395605fd	0.00020410861
235	0x3aaee162	0.0013342316
236	0xbbfa1502	-0.007631899
237	0xb9cddd92	-0.0003926573
238	0x3b7af955	0.0038295586
239	0x3a12b0d7	0.0005595809
240	0x3b8ee155	0.0043603578
241	0x3b614328	0.0034372304
242	0xbc3d7ed4	-0.011565883
243	0x3add92d2	0.0016904718
244	0xbbe24740	-0.0069054663
245	0xbb402414	-0.002931838
246	0xbb912de4	-0.0044305194
247	0x3ca2a698	0.019854829
248	0x3bd66b87	0.00654358
249	0xbb019c37	-0.001977695
250	0xbbaa0464	-0.0051885117
251	0xbba48484	-0.00502068
252	0x3b4d940d	0.0031368763
253	0xb9c35ba0	-0.00037261564
254	0x3b1ea944	0.0024209777
255	0xbc1a8f83	-0.00943363

action_model._discrete_distribution.branches.0.bias f4 [5]
0	0x00000000	0.0
1	0x00000000	0.0
2	0x00000000	0.0
3	0x00000000	0.0
4	0x00000000	0.0

action_model._discrete_distribution.branches.1.weight f4 [5, 256]
0	0xbb887ac9	-0.0041650278
1	0xba5e1a0f	-0.0008472511
2	0xba2dfaba	-0.00066367874
3	0x3c031d53	0.008002597
4	0x3b758fd2	0.0037469757
5	0x3b8d7778	0.0043172203
6	0xbb9949db	-0.0046779937
7	0xbbb105c5	-0.005402299
8	0xbbee9c2f	-0.007281802
9	0x3b99ec96	0.0046973927
10	0xbaae4307	-0.0013295122
11	0xb9d6de2d	-0.00040982795
12	0x3ba298ba	0.004962054
13	0xb9e76058	-0.00044131535
14	0x3bc73056	0.00607876
15	0xbb646005	-0.003484727
16	0x39b2cf2b	0.00034105158
17	0x3abb604c	0.0014295666
18	0x3c5192d5	0.012791355
19	0x3c0a9f6c	0.008460861
20	0xbbe35d43	-0.006938608
21	0xbbfb3f53	-0.007667461
22	0xba2feb33	-0.00067107676
23	0x3b8f9a76	0.004382427
24	0xbc06069f	-0.0081802895
25	0xbc3a6006	-0.011375433
26	0x3c537e97	0.012908599
27	0xbc4f456d	-0.01265083
28	0x3a51c56a	0.0008002134
29	0xbc00a9d1	-0.007852987
30	0x3a70ada8	0.000918115
31	0x3a397506	0.0007074628
32	0xbc47321e	-0.012157945
33	0xba84d349	-0.0010133769
34	0x3c3de9af	0.011591359
35	0xb9c5667b	-0.00037651122
36	0x3c1d6b29	0.0096080685
37	0xbc7661c7	-0.01503796
38	0xbbdcc0a0	-0.00673683
39	0x3c6e6562	0.014550539
40	0x3c1ecaa3	0.009691867
41	0xba7a0d6f	-0.0009538745
42	0xbb7f4fe3	-0.0038957528
43	0xbb6ce6c8	-0.0036148299
44	0x3a9a317a	0.0011764013
45	0xb98bc01b	-0.00026655276
46	0x3bd271e7	0.0064222696
47	0x3bb058cf	0.0053816806
48	0xbb339daa	-0.0027407208
49	0x3b5ae433	0.0033400177
50	0x3b3c12bb	0.0028697688
51	0x3a5691df	0.00081851886
52	0x3c167f06	0.009185558
53	0xba9df03a	-0.0012049743
54	0x3b92dbf7	0.0044817883
55	0x3a19c62f	0.00058660185
56	0x3bdfb095	0.00682647
57	0xbb97ef7a	-0.004636702
58	0x3bd59d72	0.006519013
59	0xbc0846ab	-0.00831763
60	0xbab101cf	-0.0013504567
61	0x3be63bed	0.0070261867
62	0xbb703915	-0.0036655117
63	0xbb9aa9b3	-0.0047199368
64	0x3c2a9ec0	0.0104138255
65	0xbbc289af	-0.0059368233
66	0x3bb1bdd6	0.0054242415
67	0x3ba8dba8	0.005153138
68	0x3bc957ad	0.006144485
69	0x3c66985f	0.014074414
70	0x3a8956a4	0.0010478091
71	0xbbb55fd3	-0.005535105
72	0xbb812bdd	-0.0039419965
73	0x3bbd0a98	0.005769085
74	0x3adf1e7f	0.0017022638
75	0x3c34763e	0.011014519
76	0xbaea8a60	-0.0017894022
77	0xb9abb4e3	-0.00032750433
78	0x3c01f4da	0.007931912
79	0xba45fb87	-0.0007552434
80	0x3abec1b4	0.0014553578
81	0x3b2e6c3c	0.0026614806
82	0x3a843975	0.0010087924
83	0x3b228c79	0.0024802967
84	0xbbc6b2f7	-0.0060638147
85	0xb9d454e5	-0.00040499042
86	0x3bc1409c	0.0058975946
87	0xbab99da7	-0.0014161364
88	0x3c0f12b7	0.008732489
89	0xb9691630	-0.00022228877
90	0x3ba4effb	0.0050334907
91	0x3c5d4620	0.013505489
92	0xbb8f74cf	-0.0043779383
93	0x3bc8fb9a	0.006133509
94	0x3c37b6c7	0.011213011
95	0x3bf2328f	0.007391281
96	0x3ad44ad3	0.0016196616
97	0xbba2cc0a	-0.004968171
98	0x3af18d03	0.0018428866
99	0x3b6a95fd	0.0035794966
100	0x3c00735a	0.007840002
101	0x3ba6693e	0.005078464
102	0xbb5e9cc3	-0.003396795
103	0x3a58cbb2	0.0008270099
104	0x3c04279d	0.008066085
105	0x3c3f6580	0.011681914
106	0xbb8abbca	-0.004233812
107	0x3c691d40	0.014228165
108	0x3b759cd0	0.00374775
109	0xbb451b0d	-0.0030075938
110	0xbb6a8738	-0.0035786163
111	0x3bdea5f5	0.006794686
112	0xbb93d682	-0.0045116553
113	0x3be192c7	0.0068839523
114	0x3be7e9b8	0.007077422
115	0x3b649343	0.0034877814
116	0x396e6a75	0.00022737107
117	0x3b433cc4	0.0029790858
118	0x3b3c14f5	0.0028699015
119	0x3a9fb3c3	0.001218431
120	0xbc0bafdb	-0.008525814
121	0xbc50e358	-0.0127495155
122	0xbb7dd293	-0.0038730248
123	0x3bb63b30	0.005561255
124	0xba399c53	-0.0007080484
125	0x3b78ba1b	0.0037952724
126	0x3b1570bb	0.0022802788
127	0xbb9bf234	-0.0047590975
128	0xbb54cc32	-0.0032470343
129	0xbbb97f51	-0.0056609293
130	0xba343323	-0.0006874075
131	0xbb61269f	-0.0034355295
132	0xbb6eac60	-0.0036418661
133	0x3b4582ee	0.0030137855
134	0x3b48528f	0.0030566787
135	0x3b8d7bc2	0.0043177316
136	0xbac20c27	-0.0014804647
137	0xbba1e2f4	-0.004940385
138	0x3a6a7a25	0.00089445926
139	0x3aad8077	0.0013237138
140	0x3c0ee16b	0.008720736
141	0x396c405a	0.00022530687
142	0xbb1624a4	-0.0022910023
143	0xba34f389	-0.00069027446
144	0xbc226671	-0.009912119
145	0x3ad23e1d	0.001604024
146	0xbb99bb6e	-0.004691533
147	0xbb82bfdf	-0.003990158
148	0x3a17e6c8	0.0005794582
149	0xbb9139ac	-0.004431924
150	0x3a7cdc4d	0.00096458645
151	0xb8ecba45	-0.00011288052
152	0x3b25d643	0.0025304712
153	0x3c7873aa	0.015164295
154	0x3b7e8200	0.003883481
155	0xbc04c243	-0.008102956
156	0x3bc30ccd	0.0059524537
157	0xbbedea43	-0.007260592
158	0xbbb2bd37	-0.005454685
159	0x3bacc7b7	0.0052728313
160	0xbac40d14	-0.0014957511
161	0xbc452983	-0.012033823
162	0x3bab315f	0.0052243914
163	0x3b64ebab	0.0034930508
164	0x3bf19fed	0.007373801
165	0x38c5f6a7	9.4396346e-05
166	0x3a9935cc	0.0011689006
167	0xbb62f780	-0.0034632385
168	0xb81c140c	-3.721197e-05
169	0x3b9a677b	0.004712043
170	0x3a12e8d4	0.0005604152
171	0x3b06b8db	0.002055696
172	0x39a0f2eb	0.00030698566
173	0xbc093ccb	-0.008376311
174	0xbc4dcf7f	-0.012561678
175	0xbc39996f	-0.011328085
176	0x3b82f3ef	0.0039963643
177	0xbc7afe05	-0.015319352
178	0x3a2d022e	0.0006599751
179	0x3923f25b	0.00015635176
180	0x3b5fe6ba	0.0034164623
181	0xbae7bab8	-0.0017679548
182	0x3c1c174f	0.009527042
183	0xbbf83200	-0.00757432
184	0x3c494225	0.0122838365
185	0xbc22d08d	-0.009937418
186	0xbbd5af28	-0.0065211244
187	0xb9f92ca0	-0.0004752623
188	0xbb464daf	-0.0030258705
189	0x3c1d9367	0.009617663
190	0xba5ad22f	-0.000834736
191	0x3b9374f2	0.004500025
192	0x3bb6a4d6	0.005573849
193	0xbc1dcfdb	-0.009632076
194	0x3c616c02	0.013758661
195	0xbb072018	-0.0020618495
196	0x3b2530ab	0.002520601
197	0x3b69b1b5	0.00356589
198	0x3a39a0bf	0.0007081143
199	0x3b985186	0.00464839
200	0xbb8ec30b	-0.004356747
201	0x3c5b07cb	0.013368557
202	0xb99529a6	-0.00028450525
203	0xbb6c32d2	-0.0036041033
204	0xbbef9c23	-0.007312314
205	0x3ab84669	0.001405907
206	0x3bbdd787	0.005793515
207	0xbb8f5979	-0.0043746796
208	0xbb4cbc57	-0.003124019
209	0xbb67de2f	-0.0035380234
210	0x3bb80bbe	0.005616634
211	0x3b0d4d17	0.0021560842
212	0xbb18060b	-0.0023196961
213	0x3b42eb65	0.0029742357
214	0xbc1fcf0b	-0.009753953
215	0x3c4ea027	0.0126114255
216	0xbc91d5f7	-0.017802222
217	0x3c61a40f	0.013772025
218	0xbbeb7185	-0.0071851634
219	0x3bd30f6d	0.006441048
220	0xbb35ce6f	-0.0027741452
221	0xba2b7fad	-0.00065421575
222	0x3c2a08e5	0.010378097
223	0x3b617eef	0.0034407934
224	0xbaa4cd3c	-0.0012573372
225	0xbc0812ce	-0.008305265
226	0xbbaa1187	-0.0051900777
227	0x3a5f9fc0	0.00085305795
228	0x3b55d63a	0.003262891
229	0xb9fafc48	-0.0004787168
230	0xbb58e877	-0.0033097544
231	0xb96b71cf	-0.00022453743
232	0xbae7ed78	-0.0017694673
233	0x3be3335d	0.006933613
234	0x3b0557a3	0.0020346425
235	0xbb656f62	-0.0035009016
236	0xbbb4d2d1	-0.0055182953
237	0xbc278d32	-0.010226535
238	0xbc42fdb7	-0.011901311
239	0x3b2a2313	0.0025960847
240	0xbb4d0130	-0.0031281225
241	0x3b3eb893	0.0029101714
242	0xbb50af98	-0.0031842943
243	0x3c16ab0b	0.009196053
244	0x3c1bc1af	0.009506627
245	0x3bac0374	0.005249435
246	0xbc76cbcb	-0.0150632365
247	0x3b4c4606	0.0031169667
248	0xbc55cffd	-0.013050077
249	0x3a82a0e8	0.0009966167
250	0xbc31a1db	-0.010841812
251	0xbb0cc4f7	-0.0021479705
252	0xbbba4bb8	-0.005685296
253	0x3ba15a43	0.00492409
254	0x3aabf90f	0.001312049
255	0x3c47b89d	0.012190011

action_model._discrete_distribution.branches.1.bias f4 [5]
0	0x00000000	0.0
1	0x00000000	0.0
2	0x00000000	0.0
3	0x00000000	0.0
4	0x00000000	0.0

action_model._discrete_distribution.branches.2.weight f4 [4, 256]
0	0xbc2de1a8	-0.010612883
1	0xbc335a97	-0.010946891
2	0x3b7f663d	0.003897085
3	0x3c6c8e5a	0.014438236
4	0xbb6e4a05	-0.0036360037
5	0xbb9db3a9	-0.004812677
6	0x3a42dc04	0.00074332976
7	0xbc7d1f6f	-0.015449389
8	0xbab8bb28	-0.0014093863
9	0x3bdc89bf	0.006730288
10	0xbb43790b	-0.0029826786
11	0xbbacdd3b	-0.005275396
12	0xbc0fe525	-0.00878266
13	0xbbb3ede3	-0.005491005
14	0xbca594bf	-0.02021253
15	0x3b96aaf7	0.0045980173
16	0x3b4b086e	0.0030980366
17	0xba9e69c3	-0.0012085963
18	0x3b239e73	0.002496627
19	0xbbe20293	-0.0068972795
20	0x3bdbbd5a	0.006705922
21	0x3c153712	0.009107368
22	0x38f2eb0b	0.000115832394
23	0xbb33bd49	-0.0027426055
24	0x3c637dff	0.01388502
25	0x3b9c068f	0.004761524
26	0x3b46d6e5	0.003034049
27	0x3af18890	0.001842754
28	0x3b047b46	0.0020215078
29	0xb8d1efe8	-0.000100105826
30	0xbbac1871	-0.005251937
31	0xbb6f1542	-0.0036481177
32	0x3b9cc52a	0.004784246
33	0x3bee21a5	0.0072671943
34	0x3c011bc6	0.007880157
35	0xb8912457	-6.9209076e-05
36	0xbaa338e2	-0.0012452865
37	0x3c15c1ee	0.009140475
38	0x3c10942c	0.008824389
39	0x3aa4552e	0.0012537593
40	0xbac9189e	-0.001534242
41	0x3b9ac29b	0.004722906
42	0xbba4ad6a	-0.0050255554
43	0xbc08760c	-0.008328926
44	0xbb678145	-0.0035324853
45	0xbbab61b9	-0.0052301553
46	0x3c1638f8	0.009168856
47	0x3c837ad8	0.016049787
48	0xbb9489db	-0.004533035
49	0x3b233d7d	0.0024908476
50	0xbba0adba	-0.0049035223
51	0x3b6991a3	0.0035639785
52	0xbbff38e5	-0.007788765
53	0x3bed5a85	0.007243457
54	0xbb9739a8	-0.0046150275
55	0x3aef0472	0.0018235578
56	0x3b9c7677	0.0047748643
57	0x3ba96c8d	0.005170411
58	0x3a3b053b	0.0007134263
59	0xbbca4b92	-0.0061735595
60	0x3c80b30e	0.01571038
61	0xbc0660d2	-0.008201795
62	0x3a9d02ac	0.0011978946
63	0xbbb00128	-0.0053712316
64	0xbb9c9be8	-0.0047793277
65	0xbc214307	-0.009842641
66	0x37f28b55	2.891353e-05
67	0xbacacdea	-0.0015472744
68	0xbb1ac34a	-0.0023614937
69	0x3b0354cf	0.0020039564
70	0x3bca34ba	0.0061708363
71	0xbc1e5ed0	-0.00966616
72	0x3b585e85	0.0033015322
73	0xbb0eb2c3	-0.002177403
74	0x3bdd832a	0.0067600207
75	0x3ba56f8b	0.0050486973
76	0xbbce7e0f	-0.0063016484
77	0xbb199a66	-0.0023437976
78	0x3ae38e22	0.0017361084
79	0x385607d0	5.1028852e-05
80	0xbab79e76	-0.0014009017
81	0xba4606c9	-0.00075541117
82	0x3b031b95	0.0020005454
83	0xbc2daddb	-0.010600532
84	0x3b94494f	0.0045253406
85	0xbb6ba36f	-0.0035955568
86	0x3c6f6647	0.014611787
87	0x3c37c36b	0.011216025
88	0x3a27ea58	0.00064054644
89	0x3aa62997	0.001267719
90	0x3c47aa2b	0.012186567
91	0x3b2f9853	0.0026793673
92	0x3932bfca	0.0001704685
93	0xbb02ff03	-0.0019988425
94	0x3a96b0ec	0.0011496819
95	0xbc486ea4	-0.01223341
96	0x3c0c3a37	0.008558801
97	0xbb81f70b	-0.0039662174
98	0xbbfd1585	-0.0077235126
99	0xbb26ee2f	-0.0025471558
100	0x3bd36ca2	0.006452159
101	0x3bca502b	0.0061741075
102	0x3ad5fdc3	0.0016326237
103	0x3be17c43	0.006881268
104	0x3b4961a2	0.003072836
105	0x39f809cd	0.00047309548
106	0x3bf8976a	0.0075864093
107	0xbb643a3f	-0.0034824756
108	0xbc63762a	-0.013883153
109	0xbb04995b	-0.0020233009
110	0x39f51588	0.00046746084
111	0xbba7f30b	-0.0051254085
112	0xbc52d15f	-0.012867301
113	0xbb573a7a	-0.0032841251
114	0xbb3d93a7	-0.002892712
115	0x3b8d3172	0.004308873
116	0x3a72a48f	0.00092560885
117	0x3c34f746	0.011045283
118	0xbae237ed	-0.0017259099
119	0xbb9215dc	-0.0044581722
120	0x3c1739bb	0.009230073
121	0x3b082a01	0.002077699
122	0xbbff8bb0	-0.0077986345
123	0x3afebb2f	0.0019434447
124	0x3bfdc21b	0.0077440864
125	0x3b479c7f	0.003045827
126	0xbba463b1	-0.005016767
127	0x3b804793	0.0039147823
128	0x3bf5cc60	0.00750117
129	0x3bb402b5	0.0054934868
130	0x39c984c9	0.0003843664
131	0xbb292b2c	-0.0025813086
132	0x3b9950a5	0.004678803
133	0x3aff219b	0.0019464971
134	0xb9f5f365	-0.00046911385
135	0xbb157756	-0.0022806725
136	0x3b394b7f	0.002827376
137	0x3c1c69cb	0.009546707
138	0xbc629cb5	-0.013831307
139	0x3ab3ade0	0.0013708435
140	0x3b4f4bf2	0.003163096
141	0xbbfb20e7	-0.0076638344
142	0xbbae17cf	-0.005312897
143	0xbb33a3b6	-0.0027410812
144	0x3bc39308	0.005968455
145	0xbac15ffa	-0.0014753335
146	0x3bdfd065	0.0068302625
147	0xbbc1289b	-0.005894733
148	0x3c13f7ab	0.009031217
149	0x3ca4cae3	0.020116275
150	0xbc10fc15	-0.008849164
151	0xbbc3627b	-0.0059626675
152	0xbb66102a	-0.003510485
153	0x3bad3829	0.005286236
154	0x3b3e3479	0.0029022975
155	0xbb955c87	-0.0045581493
156	0x3bb315e9	0.0054652584
157	0x3bc2512d	0.005930087
158	0x3c9803c2	0.01855648
159	0xbc1c6d3d	-0.009547529
160	0xbb451635	-0.003007305
161	0x3a258339	0.0006313804
162	0x3aafe1df	0.0013418755
163	0x3c53db45	0.012930696
164	0xbbc40b90	-0.0059828237
165	0x3b36be6b	0.0027884494
166	0xb99ae1ef	-0.00029541503
167	0x3b32b27a	0.0027267025
168	0x3c13dd04	0.009024862
169	0x38d4b48f	0.000101425794
170	0x3aaeae00	0.0013327003
171	0xbb77fa38	-0.003783835
172	0xbaf0d553	-0.0018374122
173	0x3b1154df	0.0022175831
174	0x3b07c25b	0.002071521
175	0x39f410a7	0.00046551714
176	0x3b74abd8	0.0037333872
177	0x3bd66128	0.0065423436
178	0xbb80a06b	-0.0039253733
179	0x3b2dc445	0.002651469
180	0x3a721eb2	0.00092361413
181	0xbc170b05	-0.009218936
182	0x3bd92f6f	0.006627969
183	0xbc3bb53f	-0.011456787
184	0x3bc1f6ab	0.0059192977
185	0xbbb65cc8	-0.0055652596
186	0xbb66d74d	-0.0035223544
187	0xbbada111	-0.0052987416
188	0x3c4906c2	0.012269678
189	0x3bd6e54b	0.0065580956
190	0x3b19629b	0.002340472
191	0x3c06d51f	0.008229523
192	0x3bb21c86	0.005435529
193	0xba73b7a3	-0.00092970784
194	0x3a9064c3	0.0011016357
195	0x3c162ef2	0.009166466
196	0x3aaeab78	0.0013326248
197	0xbbc94b0d	-0.00614298
198	0x3bf8ad62	0.007589028
199	0x39cb0cff	0.0003872886
200	0x3b061381	0.0020458403
201	0xbb7f173d	-0.0038923763
202	0xbbdc2e5d	-0.006719394
203	0xbc13c9a1	-0.00902024
204	0xbb611435	-0.003434432
205	0x3b9aebfa	0.0047278376
206	0x3bcd7e65	0.006271171
207	0xbc03c0c4	-0.008041564
208	0x3bbe0671	0.0057991077
209	0x3c143a5f	0.00904712
210	0xbb3ffd23	-0.0029295168
211	0xbb33cb6f	-0.0027434488
212	0x3c038a1c	0.008028533
213	0x3c2c2a34	0.010508109
214	0x3c45885a	0.0120564345
215	0x3c77af4d	0.015117479
216	0xba5176ba	-0.0007990409
217	0xbb2bd5f3	-0.0026220053
218	0xbba52833	-0.0050401925
219	0x3bcccc12	0.006249913
220	0xbbc1c944	-0.0059138853
221	0x3a011b25	0.00049250043
222	0xbbf9116b	-0.0076009533
223	0xbaa67c81	-0.00127019
224	0x3b839766	0.004015851
225	0x3c341f3b	0.010993774
226	0x3a7f6f0a	0.0009744024
227	0x3b83bfd8	0.0040206723
228	0xbb7bd182	-0.0038424437
229	0x3b71c45b	0.0036890719
230	0x3bbfb278	0.0058501326
231	0xbbbc45af	-0.0057456116
232	0xb9d7dd37	-0.00041172814
233	0xbc6c1a57	-0.014410577
234	0x3baa433c	0.0051960032
235	0xbc1f4b6a	-0.00972257
236	0xbba45cb8	-0.0050159357
237	0x3c62a0fd	0.013832328
238	0x3a430c96	0.0007440535
239	0x39da88bb	0.00041682072
240	0xbb95d1c3	-0.0045721247
241	0xbb7b9255	-0.0038386781
242	0xb989bb62	-0.00026270287
243	0xbb9562c3	-0.0045588925
244	0xbbbe1879	-0.005801257
245	0x3be3c1f3	0.006950611
246	0xbb37035a	-0.0027925582
247	0x3b3d1cff	0.0028856394
248	0x3b1d51ce	0.0024005058
249	0xbb95e5e3	-0.004574524
250	0xbac8f424	-0.0015331549
251	0xbad6f0db	-0.0016398685
252	0x3b346c6b	0.0027530442
253	0xbbad0d97	-0.005281161
254	0x3bc0702d	0.0058727474
255	0x3b5a1d42	0.00332816

action_model._discrete_distribution.branches.2.bias f4 [4]
0	0x00000000	0.0
1	0x00000000	0.0
2	0x00000000	0.0
3	0x00000000	0.0
