Assets/AI/LPOpponent_52/LPOpponent.onnx (onnx, 288854 bytes, 11 tensors)

discrete_act_size_vector f4 [1, 3]
000000 00 00 c0 40 00 00 c0 40 00 00 a0 40
       6.0 6.0 5.0

network_body._body_endoder.seq_layers.0.weight f4 [256, 3]
000000 d5 81 24 3e d9 89 5d 3d 6c 7a e7 be c9 48 40 bf
       0.16065152 0.05408654 -0.45210588 -0.7511106
000010 78 05 87 be 5b f2 11 3f c9 1a 67 bf 55 8f 2a be
       -0.2637136 0.5701043 -0.90275246 -0.1665624
000020 19 eb b0 3e b1 c0 2e 3e a9 fd 96 bd 31 ed bf 3e
       0.34554365 0.17065693 -0.073726006 0.3748565
000030 28 4c c8 3f d2 9e 1b be d2 3a f9 3e 1b 3d b3 be
       1.5648241 -0.15197304 0.4867769 -0.35007557
000040 6c d4 65 bd 37 f3 dd bd 22 ea 51 3f 5d 19 e7 3e
       -0.056110784 -0.10837405 0.81997883 0.45136538
000050 e0 d4 57 bf ea ea 3e 3f 37 de 0e 3f cb 24 c2 be
       -0.84309196 0.745772 0.5580782 -0.37918696
000060 e1 80 ba 3e 4d 96 f6 3e 81 2f 3e 3f 08 fe 32 bf
       0.36426452 0.48161545 0.74291235 -0.6991887
000070 13 61 56 3f b1 3d 32 3f fc 6f 1e 3e f5 42 ae be
       0.83741874 0.69625384 0.15472406 -0.3403546
000080 91 f9 b0 3e a8 4f b1 3d 4f 86 01 bf db 99 27 bf
       0.34565404 0.08657771 -0.50595564 -0.6546914
000090 d9 de 65 bf 51 9b 13 bf 00 8c a2 bf ab c1 61 bf
       -0.89793164 -0.5765887 -1.2698975 -0.8818614
0000a0 ee 1b 14 3d 65 22 e1 3e 3d 5b 77 bf db c2 26 3f
       0.03615945 0.43971553 -0.96623594 0.65141076
0000b0 cc 15 a8 3d 22 f7 c9 be 90 d4 dd be f4 ff 72 bf
       0.082072824 -0.3944636 -0.43326235 -0.94921803
0000c0 37 56 8a bf ff af d3 be 5a c5 10 3f 56 08 16 3e
       -1.0807561 -0.41345212 0.56551135 0.14651617
0000d0 b3 4d 00 be ca d4 dd be 70 e3 3d be f6 ae 3b bf
       -0.1252964 -0.43326408 -0.18543792 -0.73313844
0000e0 a6 6d 85 3e e3 f4 ad bc af bd 34 bd c6 30 70 bf
       0.26060218 -0.021234935 -0.04412621 -0.9382442
0000f0 d3 54 ba 3e a8 fc 7c be ad 50 53 bf 55 e2 d7 be
       0.3639284 -0.24705756 -0.82544976 -0.42164865
000100 d7 65 3c 3f 23 c5 05 bf 50 a2 8e 3e 1f cd 2f be
       0.73592895 -0.5225393 0.2785821 -0.17168091
000110 42 f3 e7 be c8 53 84 3f e9 03 d7 be b4 2d 93 3c
       -0.45302778 1.0338068 -0.4199517 0.017966129
000120 d7 68 a4 3e a3 ca 14 bd 2c 46 e8 3e 8d 18 93 3e
       0.32111236 -0.036326062 0.45366037 0.28729668
000130 ed 4e 6a 3f 4f 67 16 3f 63 d2 5e 3f a7 8c 0b 3f
       0.9152668 0.58751386 0.87039775 0.54511493
000140 9c 15 da be 5b a4 0f be 27 97 4f 3f 3f c7 32 be
       -0.42594612 -0.1402754 0.81090015 -0.17458819
000150 c2 bb 10 3f ef 09 b8 3e 32 84 84 3c eb e3 11 3e
       0.56536496 0.3594508 0.016176317 0.142471
000160 3d df 09 3e 35 43 f0 be 72 50 ce 3d 2d 65 e7 3e
       0.13464065 -0.46926275 0.100739375 0.45194378
000170 17 f6 37 3e 0d 45 97 bf 1b 9d 9d bf 9d a4 cc be
       0.1796497 -1.1817948 -1.231357 -0.3996934
000180 62 a9 c3 3e 89 7f 23 3f 86 b1 a1 be de 99 08 3f
       0.38215166 0.6386648 -0.31580752 0.5335978
000190 00 09 a9 3d bf de 81 bf f7 d3 fd 3e ac a7 4c 3f
       0.0825367 -1.0146102 0.4957578 0.79943347
0001a0 01 43 fc 3d 9c 23 9c 3e f7 95 2c bf 4d cf dd be
       0.123174675 0.30495918 -0.6741633 -0.4332222
0001b0 50 77 1b 3f 7d ef 90 be 0f e8 d9 3e 9c b9 91 be
       0.6072893 -0.28307715 0.4255986 -0.2846192
0001c0 3f 1a 65 be 53 ee 16 be 39 0c 68 bf ec c1 2b bf
       -0.22373293 -0.14739351 -0.9064365 -0.67092776
0001d0 9a 84 ef be 6b 3c 2b 3f fa 16 0b bf 3f 5b e7 3e
       -0.46780854 0.66889066 -0.54331934 0.45186803
0001e0 a0 1d e7 3e 07 0d c5 be 65 88 37 bd 75 38 3d be
       0.4513979 -0.38486502 -0.04480781 -0.18478568
0001f0 a9 39 02 bf 77 17 18 3e b3 df 98 be 17 15 aa bd
       -0.5086923 0.14852701 -0.2985817 -0.08304804
000200 71 09 dd bc 7a 16 07 3e 96 09 5b bf 3c 18 05 be
       -0.026982041 0.13192168 -0.855615 -0.12997526
000210 a0 b8 e2 3d ed 70 ce be 98 5d 17 be c5 4a fc bd
       0.11070371 -0.4032053 -0.14781797 -0.12318949
000220 6c 40 5b be bf 6c f1 be 5e 2f 71 be b7 1b e7 bd
       -0.21411294 -0.4715328 -0.23553225 -0.11284583
000230 1e dc 50 3e 68 4b 02 bf 41 fc e3 3e 79 3f 19 3f
       0.20396468 -0.5089631 0.44528392 0.59862477
000240 8f 76 2d 3e e9 c5 65 be 25 d6 c1 be 10 89 26 3e
       0.16939758 -0.22438778 -0.37858692 0.16263223
000250 fe 17 8d bf 13 1d 34 bf ed f0 60 3f 43 a8 36 3f
       -1.1022947 -0.70356864 0.87867624 0.71350497
000260 02 76 b1 3e e6 c1 06 be 1f be 20 be 29 dc 93 3f
       0.34660345 -0.13159904 -0.15697525 1.1551563
000270 b7 e8 9a 3f 40 7f a6 bd 88 29 3b be 5d b5 3e bf
       1.2102269 -0.0812974 -0.18277562 -0.7449549
000280 a3 fb 4e 3f 16 cd 83 3f 95 c1 03 be 4b 7a f7 be
       0.8085272 1.0296962 -0.12866814 -0.4833549
000290 d5 39 0c 3f 0a 27 39 be 7d 81 ed bd 37 22 1f 3e
       0.54775745 -0.18081298 -0.115969636 0.15540396
0002a0 68 d5 b4 bd ba dd 0e 3e 64 89 63 3e 7f 4e 8c 3e
       -0.088297665 0.1395177 0.22220379 0.27403638
0002b0 a1 fd 04 bf fb b1 8e be 3f b8 fe 3e ac 6f d8 3d
       -0.51949507 -0.27870163 0.49749944 0.10568175
0002c0 f3 17 7f 3f 55 39 e4 be 0c 7f 72 be 3d 69 19 3e
       0.9964592 -0.4457499 -0.23681277 0.14981551
0002d0 53 f9 8e bf 14 3b 1d bf bf 6d 19 bf 96 e2 b9 3e
       -1.1169838 -0.6141827 -0.59933084 0.36305684
0002e0 03 e1 ef 3e bb 41 9b 3e 1e 7f 21 be 00 93 0b bd
       0.46851358 0.30323586 -0.15771148 -0.034075737
0002f0 c3 3d 44 be 65 23 6d 3f 45 0c 2c bf f1 59 4e bf
       -0.19164185 0.9263213 -0.6720622 -0.8060599
000300 c5 99 09 bf 30 21 de bf b3 00 d9 3e 95 25 2a 3f
       -0.5375026 -1.7353878 0.42383346 0.66463596
000310 3e f7 5a 3e 7b b3 01 3e 5e 2d bd be 58 3b 13 bf
       0.21383378 0.12666123 -0.36948675 -0.57512426
000320 e7 b9 8a 3e f3 53 a2 3d d5 09 49 3e 81 51 29 be
       0.27094957 0.07926168 0.19632657 -0.16534998
000330 cd a4 96 3e b5 65 8d be f8 45 8b bf 1b b8 1a bf
       0.29422608 -0.2761666 -1.0880728 -0.6043717
000340 a8 41 0d 3d 07 56 6d 3f 9d 6a 1a 3f b6 84 e4 be
       0.034486443 0.9270939 0.6031893 -0.446325
000350 85 10 7d be 46 f9 66 3f 7a a3 8b 3e 96 c8 e4 bd
       -0.24713333 0.9022411 0.2727316 -0.11171071
000360 a7 17 9b 3f a9 eb 19 be 9c 63 b1 be 13 cd 73 be
       1.2116593 -0.15031303 -0.34646308 -0.23808698
000370 a2 fa c5 be 19 2c b0 bf 44 e5 42 be c7 0c 6d 3e
       -0.3866778 -1.3763458 -0.1903277 0.23149405
000380 eb fa 4c bf 36 c7 d9 be 73 d7 74 bf 1c cf 42 3f
       -0.8007037 -0.42534798 -0.9564125 0.76097274
000390 20 6d a8 bf 92 b0 6c 3e 20 0b dc be a6 a2 2f 3e
       -1.3158302 0.23114231 -0.42977238 0.17151889
0003a0 f6 c1 d9 bd be d5 8e 3e ab 12 07 bd b2 af 04 3f
       -0.10632698 0.27897447 -0.032976788 0.5183059
0003b0 b3 f1 f2 3e 8f 05 ba bf 91 c3 47 3f 18 39 ac be
       0.47450027 -1.4532946 0.78032786 -0.3363731
0003c0 f4 94 64 3f 4c 67 6c bd fd cd 75 bc 33 08 1c bf
       0.89289784 -0.0577157 -0.015002725 -0.6095001
0003d0 e3 99 38 3e 8a e7 61 3e 8b 36 a0 3e fb 49 11 be
       0.18027453 0.22060981 0.31291613 -0.14188378
0003e0 df 2a d0 3e 1c f0 5a 3e 39 05 71 bf 02 ff bf 3e
       0.40657708 0.21380657 -0.94148594 0.37499243
0003f0 bb 05 07 bf 0c 71 fe 3e 7d a4 c8 be 3e a6 b2 be
       -0.5274312 0.49695623 -0.39187995 -0.34892458

network_body._body_endoder.seq_layers.0.bias f4 [256]
000000 00 00 00 00 00 00 00 00 00 00 00 00 00 00 00 00
       0.0 0.0 0.0 0.0
000010 00 00 00 00 00 00 00 00 00 00 00 00 00 00 00 00
       0.0 0.0 0.0 0.0
000020 00 00 00 00 00 00 00 00 00 00 00 00 00 00 00 00
       0.0 0.0 0.0 0.0
000030 00 00 00 00 00 00 00 00 00 00 00 00 00 00 00 00
       0.0 0.0 0.0 0.0
000040 00 00 00 00 00 00 00 00 00 00 00 00 00 00 00 00
       0.0 0.0 0.0 0.0
000050 00 00 00 00 00 00 00 00 00 00 00 00 00 00 00 00
       0.0 0.0 0.0 0.0
000060 00 00 00 00 00 00 00 00 00 00 00 00 00 00 00 00
       0.0 0.0 0.0 0.0
000070 00 00 00 00 00 00 00 00 00 00 00 00 00 00 00 00
       0.0 0.0 0.0 0.0
000080 00 00 00 00 00 00 00 00 00 00 00 00 00 00 00 00
       0.0 0.0 0.0 0.0
000090 00 00 00 00 00 00 00 00 00 00 00 00 00 00 00 00
       0.0 0.0 0.0 0.0
0000a0 00 00 00 00 00 00 00 00 00 00 00 00 00 00 00 00
       0.0 0.0 0.0 0.0
0000b0 00 00 00 00 00 00 00 00 00 00 00 00 00 00 00 00
       0.0 0.0 0.0 0.0
0000c0 00 00 00 00 00 00 00 00 00 00 00 00 00 00 00 00
       0.0 0.0 0.0 0.0
0000d0 00 00 00 00 00 00 00 00 00 00 00 00 00 00 00 00
       0.0 0.0 0.0 0.0
0000e0 00 00 00 00 00 00 00 00 00 00 00 00 00 00 00 00
       0.0 0.0 0.0 0.0
0000f0 00 00 00 00 00 00 00 00 00 00 00 00 00 00 00 00
       0.0 0.0 0.0 0.0
000100 00 00 00 00 00 00 00 00 00 00 00 00 00 00 00 00
       0.0 0.0 0.0 0.0
000110 00 00 00 00 00 00 00 00 00 00 00 00 00 00 00 00
       0.0 0.0 0.0 0.0
000120 00 00 00 00 00 00 00 00 00 00 00 00 00 00 00 00
       0.0 0.0 0.0 0.0
000130 00 00 00 00 00 00 00 00 00 00 00 00 00 00 00 00
       0.0 0.0 0.0 0.0
000140 00 00 00 00 00 00 00 00 00 00 00 00 00 00 00 00
       0.0 0.0 0.0 0.0
000150 00 00 00 00 00 00 00 00 00 00 00 00 00 00 00 00
       0.0 0.0 0.0 0.0
000160 00 00 00 00 00 00 00 00 00 00 00 00 00 00 00 00
       0.0 0.0 0.0 0.0
000170 00 00 00 00 00 00 00 00 00 00 00 00 00 00 00 00
       0.0 0.0 0.0 0.0
000180 00 00 00 00 00 00 00 00 00 00 00 00 00 00 00 00
       0.0 0.0 0.0 0.0
000190 00 00 00 00 00 00 00 00 00 00 00 00 00 00 00 00
       0.0 0.0 0.0 0.0
0001a0 00 00 00 00 00 00 00 00 00 00 00 00 00 00 00 00
       0.0 0.0 0.0 0.0
0001b0 00 00 00 00 00 00 00 00 00 00 00 00 00 00 00 00
       0.0 0.0 0.0 0.0
0001c0 00 00 00 00 00 00 00 00 00 00 00 00 00 00 00 00
       0.0 0.0 0.0 0.0
0001d0 00 00 00 00 00 00 00 00 00 00 00 00 00 00 00 00
       0.0 0.0 0.0 0.0
0001e0 00 00 00 00 00 00 00 00 00 00 00 00 00 00 00 00
       0.0 0.0 0.0 0.0
0001f0 00 00 00 00 00 00 00 00 00 00 00 00 00 00 00 00
       0.0 0.0 0.0 0.0
000200 00 00 00 00 00 00 00 00 00 00 00 00 00 00 00 00
       0.0 0.0 0.0 0.0
000210 00 00 00 00 00 00 00 00 00 00 00 00 00 00 00 00
       0.0 0.0 0.0 0.0
000220 00 00 00 00 00 00 00 00 00 00 00 00 00 00 00 00
       0.0 0.0 0.0 0.0
000230 00 00 00 00 00 00 00 00 00 00 00 00 00 00 00 00
       0.0 0.0 0.0 0.0
000240 00 00 00 00 00 00 00 00 00 00 00 00 00 00 00 00
       0.0 0.0 0.0 0.0
000250 00 00 00 00 00 00 00 00 00 00 00 00 00 00 00 00
       0.0 0.0 0.0 0.0
000260 00 00 00 00 00 00 00 00 00 00 00 00 00 00 00 00
       0.0 0.0 0.0 0.0
000270 00 00 00 00 00 00 00 00 00 00 00 00 00 00 00 00
       0.0 0.0 0.0 0.0
000280 00 00 00 00 00 00 00 00 00 00 00 00 00 00 00 00
       0.0 0.0 0.0 0.0
000290 00 00 00 00 00 00 00 00 00 00 00 00 00 00 00 00
       0.0 0.0 0.0 0.0
0002a0 00 00 00 00 00 00 00 00 00 00 00 00 00 00 00 00
       0.0 0.0 0.0 0.0
0002b0 00 00 00 00 00 00 00 00 00 00 00 00 00 00 00 00
       0.0 0.0 0.0 0.0
0002c0 00 00 00 00 00 00 00 00 00 00 00 00 00 00 00 00
       0.0 0.0 0.0 0.0
0002d0 00 00 00 00 00 00 00 00 00 00 00 00 00 00 00 00
       0.0 0.0 0.0 0.0
0002e0 00 00 00 00 00 00 00 00 00 00 00 00 00 00 00 00
       0.0 0.0 0.0 0.0
0002f0 00 00 00 00 00 00 00 00 00 00 00 00 00 00 00 00
       0.0 0.0 0.0 0.0
000300 00 00 00 00 00 00 00 00 00 00 00 00 00 00 00 00
       0.0 0.0 0.0 0.0
000310 00 00 00 00 00 00 00 00 00 00 00 00 00 00 00 00
       0.0 0.0 0.0 0.0
000320 00 00 00 00 00 00 00 00 00 00 00 00 00 00 00 00
       0.0 0.0 0.0 0.0
000330 00 00 00 00 00 00 00 00 00 00 00 00 00 00 00 00
       0.0 0.0 0.0 0.0
000340 00 00 00 00 00 00 00 00 00 00 00 00 00 00 00 00
       0.0 0.0 0.0 0.0
000350 00 00 00 00 00 00 00 00 00 00 00 00 00 00 00 00
       0.0 0.0 0.0 0.0
000360 00 00 00 00 00 00 00 00 00 00 00 00 00 00 00 00
       0.0 0.0 0.0 0.0
000370 00 00 00 00 00 00 00 00 00 00 00 00 00 00 00 00
       0.0 0.0 0.0 0.0
000380 00 00 00 00 00 00 00 00 00 00 00 00 00 00 00 00
       0.0 0.0 0.0 0.0
000390 00 00 00 00 00 00 00 00 00 00 00 00 00 00 00 00
       0.0 0.0 0.0 0.0
0003a0 00 00 00 00 00 00 00 00 00 00 00 00 00 00 00 00
       0.0 0.0 0.0 0.0
0003b0 00 00 00 00 00 00 00 00 00 00 00 00 00 00 00 00
       0.0 0.0 0.0 0.0
0003c0 00 00 00 00 00 00 00 00 00 00 00 00 00 00 00 00
       0.0 0.0 0.0 0.0
0003d0 00 00 00 00 00 00 00 00 00 00 00 00 00 00 00 00
       0.0 0.0 0.0 0.0
0003e0 00 00 00 00 00 00 00 00 00 00 00 00 00 00 00 00
       0.0 0.0 0.0 0.0
0003f0 00 00 00 00 00 00 00 00 00 00 00 00 00 00 00 00
       0.0 0.0 0.0 0.0

network_body._body_endoder.seq_layers.2.weight f4 [256, 256]
000000 c7 36 2d 3d bc 35 85 bd f6 78 a2 bc 19 d0 a3 3d
       0.042288568 -0.0650439 -0.01983307 0.07998676
000010 62 d8 8c 3d 4e fa 1f bc 3a 7a e9 3c 2f 67 d0 bc
       0.06877209 -0.009764267 0.028500665 -0.025439827
000020 37 c2 32 3d ed cd 04 bd cd 59 c9 3d 08 e7 4a 3d
       0.04364225 -0.03242295 0.09831581 0.049536735
000030 ca 5a 87 3c 0f 0c 2e be 77 77 99 bd fa e3 7e 3c
       0.016522784 -0.16996787 -0.07493489 0.015557284
000040 5d 28 1c bb 55 95 88 bc 81 1c 48 bc 8c 07 d9 3d
       -0.002382777 -0.01667277 -0.012213827 0.105971426
000050 5f a0 ca 3b 46 86 ba bd b2 31 5b 3d 21 ae 2c 3d
       0.0061836685 -0.09107642 0.05351419 0.04215825
000060 f4 8f 44 3c 88 ad 39 bc f2 50 09 3d 53 c7 74 bd
       0.011997212 -0.011332877 0.03352446 -0.059760403
000070 c4 44 c5 3c d0 e6 0d be 67 49 bc bc 52 38 01 bc
       0.024080642 -0.13857579 -0.02298422 -0.007886963
000080 48 27 43 bc 6c 90 0b bd 4b 05 35 3b 80 3f c4 3d
       -0.011911221 -0.03407328 0.0027621563 0.09582424
000090 98 d1 eb bc f3 93 7b bd b6 17 03 3e e2 48 0a bd
       -0.028786466 -0.061420392 0.12802014 -0.033760913
0000a0 3f 94 46 3d 6d 7c 6e bc 31 18 66 3b 7d 21 eb bc
       0.048481222 -0.014556033 0.0035109634 -0.028702492
0000b0 17 6c 8f bd 9e 00 c9 3d 6c 8f 96 3d 5f f9 6b bd
       -0.070030384 0.09814571 0.07351574 -0.057610866
0000c0 e8 af 4d bb df 66 0e bb 00 45 22 3d 57 e8 79 bd
       -0.0031385366 -0.0021728796 0.039616585 -0.061012592
0000d0 8a 30 8a 3c 23 50 19 be b8 c7 40 3d 82 6c 91 3d
       0.016868848 -0.14971976 0.047065467 0.07100774
0000e0 d5 61 2b bd 48 80 c9 b9 24 b6 4c bb f9 62 31 3d
       -0.041841347 -0.00038433284 -0.0031236494 0.04330728
0000f0 34 04 80 bd 9c 67 76 3c 3f 76 bd bd 41 e2 47 3b
       -0.06250802 0.015039351 -0.09251069 0.0030499848
000100 76 88 49 bd 1d d4 1d 3e 22 fb c2 bd cc 57 8f 3d
       -0.049202405 0.15412946 -0.09520556 0.06999168
000110 ec c3 e9 3d b0 24 78 3d 44 38 2b bd db b8 21 3e
       0.11414322 0.060581863 -0.041801706 0.15793173
000120 3d f3 12 3e 37 2e 22 bd 33 df e2 3c ca 8e 83 bd
       0.143506 -0.039594855 0.02769432 -0.06423719
000130 e7 83 b8 bd 24 f4 9e 3d 02 cd 96 3d 01 ef 3f 3d
       -0.090095334 0.0776141 0.07363321 0.04685879
000140 2a 5b b4 3d df e4 a5 bd c9 19 8b bd 01 d1 f0 3c
       0.08806451 -0.08100294 -0.067920275 0.029396536
000150 ec 45 1a 3b 3b 2b 6b bc d8 aa e8 3d bf 3c 71 bd
       0.0023540212 -0.014353569 0.11360711 -0.058895823
000160 17 ad 92 bb 9f 59 4d bc 53 68 03 be 93 5c 98 bd
       -0.0044762003 -0.012533574 -0.12832765 -0.07439532
000170 6d c5 10 bd 59 71 af 3d 46 f0 83 bc b5 b5 a7 3d
       -0.03534453 0.08566541 -0.016105782 0.08188955
000180 79 61 93 bc 17 32 37 bd fb 35 8c 3c ef 47 68 bc
       -0.017990815 -0.044725504 0.017115584 -0.014177307
000190 7c 50 7e bd 17 67 42 3d cd 0d 9f 3b b8 3c 00 3e
       -0.062088475 0.047461595 0.00485394 0.12523162
0001a0 8f 93 a0 bc 5f df d6 3d cd 75 60 bc 8b 34 0a 3e
       -0.019601611 0.104918234 -0.013699961 0.13496606
0001b0 af ff 88 bd 7f 45 d7 bc 5f 18 09 3d a2 ce 09 3d
       -0.06689393 -0.026278256 0.033470508 0.033644326
0001c0 b3 98 89 ba 48 6f d6 bc 0d ac 9f bd c7 8d 69 3d
       -0.0010497778 -0.02617611 -0.07796488 0.057019975
0001d0 b6 b4 db bd ff e5 19 3b c0 36 ea bd d7 33 61 3c
       -0.10727827 0.0023483036 -0.11436224 0.01374527
0001e0 73 52 c0 3d 4d 55 22 be f2 ba 7a 3d 62 66 a0 bd
       0.09390726 -0.15852852 0.06121344 -0.07832028
0001f0 0f 23 43 3c e5 b7 84 bd 19 4c 1c 3d 85 52 61 bd
       0.011910214 -0.064803876 0.03815851 -0.055010337
000200 ca 8b 9a 3d fc 40 9c bd 27 66 0c 3d 56 ca 02 3d
       0.07546194 -0.07629582 0.034277108 0.031931244
000210 a6 7f 20 3d 2d bc b8 3c b5 5d 59 b9 43 54 ab ba
       0.039184235 0.022550667 -0.00020729641 -0.0013071377
000220 cd 6e 77 3c 12 86 95 3d 82 10 81 3a 8e b2 82 3a
       0.015102101 0.073009625 0.0009846839 0.0009971426
000230 d4 78 86 3d dd 02 82 3c d3 fb d8 3d 41 ac a0 bd
       0.06566015 0.015870506 0.10594907 -0.07845355
000240 11 15 0e 3d 2b 9f 89 3c 47 34 0e 3d 2b 36 4d 3d
       0.03468806 0.01679953 0.034717824 0.050100487
000250 1a 4a 0e bc cf 7e 8e 3d 1b a2 7d 3d c8 6c 85 bd
       -0.008684659 0.069577806 0.061922174 -0.06514889
000260 4b 0e e5 3d 22 e4 e9 3d 46 ba b6 bc da 40 cb 3d
       0.11184367 0.11420466 -0.022305619 0.09924479
000270 1f 4f 43 bd cd 3a 9c bd 4a 72 4b 3e 73 d4 d1 bd
       -0.047682878 -0.07628403 0.19867817 -0.102455996
000280 76 b1 48 bd 83 54 11 bd 00 34 61 bd fd 13 e3 3c
       -0.048997365 -0.035480987 -0.05498123 0.027719492
000290 6a 4d 0a bc 4d 17 64 3d 39 62 ea bc c8 08 9d 3d
       -0.0084413085 0.055686284 -0.02861129 0.076676905
0002a0 9a 7e 5c 3d 99 b5 f0 39 d3 5d f2 3b 22 84 60 bd
       0.053831674 0.00045911668 0.0073964386 -0.05481351
0002b0 23 28 22 3d d9 49 fd 3d 62 1c 01 3e c7 72 94 3c
       0.03958906 0.12367601 0.12608483 0.018121136
0002c0 81 3a 09 3e 59 dd ec 3b 7e 0f af bd d0 9e de 3c
       0.13401224 0.007228535 -0.08547877 0.027175337
0002d0 a8 f2 17 bd e6 30 f5 3d 4a 18 07 3d ff 29 89 3c
       -0.03709665 0.11972217 0.03298215 0.016743658
0002e0 b3 11 cf bc fc 83 93 3c b6 52 ae 3d 19 7a 59 3c
       -0.025276994 0.018007271 0.085118696 0.013273739
0002f0 c5 19 e7 bc 25 42 97 3c 99 70 3a 3d 0f 8a be 3d
       -0.02821053 0.018464157 0.045517538 0.09303676
000300 81 8a 89 3d 71 22 e0 3b 68 7a e1 bd 9d f6 b6 bd
       0.06715871 0.0068400432 -0.11009675 -0.089337565
000310 0d a4 a0 bd 6f 8e 25 bd 09 57 09 bd 28 8e b4 bd
       -0.0784379 -0.04041904 -0.03353027 -0.08816177
000320 6e 1c 25 3b 79 71 d5 3b 66 bb ab 3d ef 51 9a 3d
       0.0025193947 0.006513771 0.08385353 0.07535159
000330 35 11 29 3c 03 04 73 3d d4 81 aa bd 00 2a b5 3d
       0.010319044 0.059329998 -0.08325544 0.088459015
000340 3d 71 1c be 20 f6 59 b8 6f 93 28 3b 81 2f ff bd
       -0.15277572 -5.1966053e-05 0.0025722643 -0.124602325
000350 b9 a2 2a 3c 55 a6 a6 bb f8 d1 94 bb 55 9b a5 bd
       0.010414773 -0.0050857463 -0.004541632 -0.08086268
000360 96 8b 90 bd 78 25 70 bd 1e fa 96 bc da 66 25 bd
       -0.07057874 -0.058629483 -0.018429812 -0.04038129
000370 b7 55 2a 3c f6 ad 63 bd 5d a0 c2 3c 83 02 f6 bb
       0.010396413 -0.055585824 0.023758108 -0.0075076236
000380 59 46 9e 3d 32 8b 40 3c 92 40 0c bd b6 f9 a8 bc
       0.077282615 0.011751937 -0.034241267 -0.020626884
000390 fe 7a 45 3d fc c5 48 bd e8 f2 b6 bd 8f 88 fd bd
       0.048212998 -0.049016938 -0.089330494 -0.12379562
0003a0 b8 29 24 3e ca c3 9e 3d 86 26 e6 3b a4 61 3e 3c
       0.1603154 0.077521876 0.0070236353 0.011619959
0003b0 a7 89 10 3e 0d 51 80 3c 86 32 7c bd 32 81 53 bc
       0.1411501 0.015663648 -0.06157162 -0.0129092205
0003c0 57 8b bb bd 4a 4c f9 bb 25 9a 41 bd b3 42 01 3b
       -0.09157436 -0.0076079713 -0.047266144 0.0019723594
0003d0 26 ae ba bd 5d ca 2c bd eb 6c 52 3d ca d9 c0 b9
       -0.091152474 -0.042185176 0.051373404 -0.0003678336
0003e0 e3 be 41 3d 45 59 da bd d1 7a 87 3d 94 df 08 3d
       0.047301184 -0.10661558 0.06615222 0.033416346
0003f0 ae 91 85 3d 76 eb 77 3c 8a 94 3e bc 51 e4 88 3c
       0.06521927 0.015131822 -0.011632094 0.016710432

network_body._body_endoder.seq_layers.2.bias f4 [256]
000000 00 00 00 00 00 00 00 00 00 00 00 00 00 00 00 00
       0.0 0.0 0.0 0.0
000010 00 00 00 00 00 00 00 00 00 00 00 00 00 00 00 00
       0.0 0.0 0.0 0.0
000020 00 00 00 00 00 00 00 00 00 00 00 00 00 00 00 00
       0.0 0.0 0.0 0.0
000030 00 00 00 00 00 00 00 00 00 00 00 00 00 00 00 00
       0.0 0.0 0.0 0.0
000040 00 00 00 00 00 00 00 00 00 00 00 00 00 00 00 00
       0.0 0.0 0.0 0.0
000050 00 00 00 00 00 00 00 00 00 00 00 00 00 00 00 00
       0.0 0.0 0.0 0.0
000060 00 00 00 00 00 00 00 00 00 00 00 00 00 00 00 00
       0.0 0.0 0.0 0.0
000070 00 00 00 00 00 00 00 00 00 00 00 00 00 00 00 00
       0.0 0.0 0.0 0.0
000080 00 00 00 00 00 00 00 00 00 00 00 00 00 00 00 00
       0.0 0.0 0.0 0.0
000090 00 00 00 00 00 00 00 00 00 00 00 00 00 00 00 00
       0.0 0.0 0.0 0.0
0000a0 00 00 00 00 00 00 00 00 00 00 00 00 00 00 00 00
       0.0 0.0 0.0 0.0
0000b0 00 00 00 00 00 00 00 00 00 00 00 00 00 00 00 00
       0.0 0.0 0.0 0.0
0000c0 00 00 00 00 00 00 00 00 00 00 00 00 00 00 00 00
       0.0 0.0 0.0 0.0
0000d0 00 00 00 00 00 00 00 00 00 00 00 00 00 00 00 00
       0.0 0.0 0.0 0.0
0000e0 00 00 00 00 00 00 00 00 00 00 00 00 00 00 00 00
       0.0 0.0 0.0 0.0
0000f0 00 00 00 00 00 00 00 00 00 00 00 00 00 00 00 00
       0.0 0.0 0.0 0.0
000100 00 00 00 00 00 00 00 00 00 00 00 00 00 00 00 00
       0.0 0.0 0.0 0.0
000110 00 00 00 00 00 00 00 00 00 00 00 00 00 00 00 00
       0.0 0.0 0.0 0.0
000120 00 00 00 00 00 00 00 00 00 00 00 00 00 00 00 00
       0.0 0.0 0.0 0.0
000130 00 00 00 00 00 00 00 00 00 00 00 00 00 00 00 00
       0.0 0.0 0.0 0.0
000140 00 00 00 00 00 00 00 00 00 00 00 00 00 00 00 00
       0.0 0.0 0.0 0.0
000150 00 00 00 00 00 00 00 00 00 00 00 00 00 00 00 00
       0.0 0.0 0.0 0.0
000160 00 00 00 00 00 00 00 00 00 00 00 00 00 00 00 00
       0.0 0.0 0.0 0.0
000170 00 00 00 00 00 00 00 00 00 00 00 00 00 00 00 00
       0.0 0.0 0.0 0.0
000180 00 00 00 00 00 00 00 00 00 00 00 00 00 00 00 00
       0.0 0.0 0.0 0.0
000190 00 00 00 00 00 00 00 00 00 00 00 00 00 00 00 00
       0.0 0.0 0.0 0.0
0001a0 00 00 00 00 00 00 00 00 00 00 00 00 00 00 00 00
       0.0 0.0 0.0 0.0
0001b0 00 00 00 00 00 00 00 00 00 00 00 00 00 00 00 00
       0.0 0.0 0.0 0.0
0001c0 00 00 00 00 00 00 00 00 00 00 00 00 00 00 00 00
       0.0 0.0 0.0 0.0
0001d0 00 00 00 00 00 00 00 00 00 00 00 00 00 00 00 00
       0.0 0.0 0.0 0.0
0001e0 00 00 00 00 00 00 00 00 00 00 00 00 00 00 00 00
       0.0 0.0 0.0 0.0
0001f0 00 00 00 00 00 00 00 00 00 00 00 00 00 00 00 00
       0.0 0.0 0.0 0.0
000200 00 00 00 00 00 00 00 00 00 00 00 00 00 00 00 00
       0.0 0.0 0.0 0.0
000210 00 00 00 00 00 00 00 00 00 00 00 00 00 00 00 00
       0.0 0.0 0.0 0.0
000220 00 00 00 00 00 00 00 00 00 00 00 00 00 00 00 00
       0.0 0.0 0.0 0.0
000230 00 00 00 00 00 00 00 00 00 00 00 00 00 00 00 00
       0.0 0.0 0.0 0.0
000240 00 00 00 00 00 00 00 00 00 00 00 00 00 00 00 00
       0.0 0.0 0.0 0.0
000250 00 00 00 00 00 00 00 00 00 00 00 00 00 00 00 00
       0.0 0.0 0.0 0.0
000260 00 00 00 00 00 00 00 00 00 00 00 00 00 00 00 00
       0.0 0.0 0.0 0.0
000270 00 00 00 00 00 00 00 00 00 00 00 00 00 00 00 00
       0.0 0.0 0.0 0.0
000280 00 00 00 00 00 00 00 00 00 00 00 00 00 00 00 00
       0.0 0.0 0.0 0.0
000290 00 00 00 00 00 00 00 00 00 00 00 00 00 00 00 00
       0.0 0.0 0.0 0.0
0002a0 00 00 00 00 00 00 00 00 00 00 00 00 00 00 00 00
       0.0 0.0 0.0 0.0
0002b0 00 00 00 00 00 00 00 00 00 00 00 00 00 00 00 00
       0.0 0.0 0.0 0.0
0002c0 00 00 00 00 00 00 00 00 00 00 00 00 00 00 00 00
       0.0 0.0 0.0 0.0
0002d0 00 00 00 00 00 00 00 00 00 00 00 00 00 00 00 00
       0.0 0.0 0.0 0.0
0002e0 00 00 00 00 00 00 00 00 00 00 00 00 00 00 00 00
       0.0 0.0 0.0 0.0
0002f0 00 00 00 00 00 00 00 00 00 00 00 00 00 00 00 00
       0.0 0.0 0.0 0.0
000300 00 00 00 00 00 00 00 00 00 00 00 00 00 00 00 00
       0.0 0.0 0.0 0.0
000310 00 00 00 00 00 00 00 00 00 00 00 00 00 00 00 00
       0.0 0.0 0.0 0.0
000320 00 00 00 00 00 00 00 00 00 00 00 00 00 00 00 00
       0.0 0.0 0.0 0.0
000330 00 00 00 00 00 00 00 00 00 00 00 00 00 00 00 00
       0.0 0.0 0.0 0.0
000340 00 00 00 00 00 00 00 00 00 00 00 00 00 00 00 00
       0.0 0.0 0.0 0.0
000350 00 00 00 00 00 00 00 00 00 00 00 00 00 00 00 00
       0.0 0.0 0.0 0.0
000360 00 00 00 00 00 00 00 00 00 00 00 00 00 00 00 00
       0.0 0.0 0.0 0.0
000370 00 00 00 00 00 00 00 00 00 00 00 00 00 00 00 00
       0.0 0.0 0.0 0.0
000380 00 00 00 00 00 00 00 00 00 00 00 00 00 00 00 00
       0.0 0.0 0.0 0.0
000390 00 00 00 00 00 00 00 00 00 00 00 00 00 00 00 00
       0.0 0.0 0.0 0.0
0003a0 00 00 00 00 00 00 00 00 00 00 00 00 00 00 00 00
       0.0 0.0 0.0 0.0
0003b0 00 00 00 00 00 00 00 00 00 00 00 00 00 00 00 00
       0.0 0.0 0.0 0.0
0003c0 00 00 00 00 00 00 00 00 00 00 00 00 00 00 00 00
       0.0 0.0 0.0 0.0
0003d0 00 00 00 00 00 00 00 00 00 00 00 00 00 00 00 00
       0.0 0.0 0.0 0.0
0003e0 00 00 00 00 00 00 00 00 00 00 00 00 00 00 00 00
       0.0 0.0 0.0 0.0
0003f0 00 00 00 00 00 00 00 00 00 00 00 00 00 00 00 00
       0.0 0.0 0.0 0.0

action_model._discrete_distribution.branches.0.weight f4 [6, 256]
000000 2f b6 14 bc 60 f2 6c 3b 54 f4 1e 3a 5b ce bd 3a
       -0.009076639 0.003615521 0.00060636294 0.0014481054
000010 10 22 8c ba a0 b7 74 3b b7 5d 5a 3b 5c b4 a0 3b
       -0.0010691304 0.0037340894 0.0033320019 0.004904313
000020 68 e8 b4 bb f7 ad 9b 3b 7a 6d 50 ba c7 53 e8 ba
       -0.005520869 0.004750963 -0.00079508836 -0.0017725163
000030 cf db 03 3c d1 56 49 bc 38 d2 a2 bb 77 b7 10 3c
       0.008048012 -0.012288765 -0.0049689077 0.008832804
000040 9c f2 c1 bb 37 c4 f8 3b 6d fb 74 ba 47 13 99 3b
       -0.005918814 0.00759175 -0.00093453267 0.0046714875
000050 b7 c1 5d 3b 97 59 05 bc 35 de 6a 3b 90 6f d1 bb
       0.0033837387 -0.008139036 0.0035838012 -0.006391473
000060 16 d9 b7 bb 57 90 0b bc 2d 15 7f 3b 3c 4d 90 3b
       -0.0056105955 -0.0085183 0.0038922534 0.0044037383
000070 41 cf 8d bb b0 be e4 3b e8 2e 02 3c 13 ab 4f 3a
       -0.004327685 0.0069807395 0.007945754 0.00079219154
000080 75 1d b6 bb a6 09 02 ba 08 b4 62 bc 80 9c 15 3c
       -0.005557711 -0.0004960544 -0.013836868 0.009131551
000090 ef b6 87 ba c2 4c 56 3b a5 3d da 3b a2 ce 1a b9
       -0.0010354201 0.003269956 0.0066601806 -0.00014763561
0000a0 70 b5 88 ba 15 f7 6a 3b d2 bc 96 3b 1b 92 b3 3b
       -0.0010430049 0.0035852839 0.004600146 0.0054800636
0000b0 77 16 08 3b 51 a1 af bb 02 9d 01 3c 1f 43 d4 3a
       0.0020765343 -0.0053598066 0.007910969 0.001619432
0000c0 47 8e 9f bb e5 43 7c 3b 6d f2 96 3b 5f a8 db ba
       -0.0048692557 0.0038492617 0.004606536 -0.0016758553
0000d0 94 4b 49 bb d7 50 4d 3b 93 bf a9 3a 88 b5 5f bb
       -0.0030715214 0.0031328702 0.001295077 -0.00341353
0000e0 a8 07 f4 ba 46 f1 12 3c b2 36 cc 3b 20 2d 79 3b
       -0.0018618004 0.008968657 0.006232106 0.0038021281
0000f0 13 3b 86 bb cb 21 d6 bb 9d 72 bc b8 48 f9 36 bb
       -0.0040963977 -0.00653479 -8.985887e-05 -0.002791958
000100 15 cc 99 bb d0 ad 1a 3b 4b e7 a8 3a 4d 2b 59 bc
       -0.004693518 0.0023602135 0.0012886313 -0.013254953
000110 2d a9 63 bb 70 78 24 3c 5d eb de ba 5b 20 26 bc
       -0.0034738288 0.01003848 -0.00170074 -0.01013955
000120 4f 0f 11 3b b7 db 92 bb 43 79 a7 3b 7c 73 b1 3b
       0.0022134369 -0.0044817585 0.005110891 0.005415378
000130 5d e3 58 bb d9 4e a1 38 40 98 26 bc 70 f4 24 bc
       -0.0033094503 7.691765e-05 -0.010168135 -0.010068044
000140 03 27 7d bb 52 df c4 3b 28 d3 a7 bc 5f 29 1f bb
       -0.003862799 0.006008067 -0.02048643 -0.0024286134
000150 d5 81 9e 3b 88 ce e0 3b f2 3b ff bb 10 38 e8 39
       0.0048372545 0.006860558 -0.0077891285 0.00044292258
000160 17 cc 89 bc cf 7c 3d bc 3a 96 60 bb 96 f0 12 3b
       -0.01682095 -0.011565401 -0.003426923 0.0022421232
000170 4b 0e 91 bb ff 04 c2 3a f9 da a9 3b fd cb 06 3c
       -0.0044267527 0.0014802514 0.0051835743 0.0082273455
000180 c5 d4 d3 3b a9 7f 22 bc d3 17 0c 3b 2b 7a 0a 3b
       0.006464573 -0.009918132 0.0021376505 0.0021129947
000190 46 15 84 3b 5a a0 05 3b 97 af 0f bb b4 88 11 3c
       0.0040308563 0.0020389766 -0.0021924728 0.00888269
0001a0 62 70 fe 3b ee d9 ac bb b5 14 e8 bb 47 2b a1 ba
       0.007764862 -0.0052750027 -0.0070825466 -0.0012296223
0001b0 35 7f 2c ba 20 e3 62 ba f8 28 e2 3a 6f a6 f4 bb
       -0.00065802346 -0.000865506 0.0017254641 -0.0074661295
0001c0 1b 7c e9 3a e1 a0 88 3b 7b d6 5e bc ad 68 cd 3b
       0.0017813476 0.004169569 -0.013600941 0.006268582
0001d0 e0 0c 1c bb 7d ef bb bb 32 04 d1 ba 33 1e 82 3c
       -0.0023811385 -0.0057353363 -0.0015946685 0.01588354
0001e0 c4 c8 1a bb f7 89 f8 3b 47 6f 71 ba f7 0e ff 3a
       -0.00236182 0.007584806 -0.0009210002 0.0019459416
0001f0 5e 65 13 bb 88 dd ff 3b f3 9e bc 38 bf 96 05 3b
       -0.002249084 0.007808391 8.994145e-05 0.002038404
000200 33 1b 9b 3b 77 1f 3f bb d3 1e b8 bb 13 c9 bd 3b
       0.004733467 -0.0029163042 -0.005618909 0.005791792
000210 83 ab c0 bb e7 e9 c2 3b e2 b0 62 bb 45 75 da bb
       -0.005879821 0.0059482935 -0.0034590294 -0.0066668116
000220 fb 4f a0 ba 4f 9a 27 bc 38 1e dc bb 72 50 a5 bb
       -0.0012230867 -0.010229661 -0.0067174695 -0.00504499
000230 0b 36 4b ba 50 d2 08 bc be a8 01 3a 7f 57 03 3b
       -0.00077518885 -0.008350924 0.0004946104 0.0020041165
000240 eb 2d d8 bb 10 78 78 3c b5 ac ed ba ba f8 eb 3b
       -0.0065972707 0.015165344 -0.0018133136 0.0072012814
000250 95 fe 88 3b e2 0f 2c 3b 5f a2 47 bb b3 21 92 3b
       0.004180739 0.0026254584 -0.003046177 0.0044595837
000260 62 ab d2 3b c3 ab 74 ba e4 2d af bc e0 b7 70 bb
       0.006429122 -0.0009333456 -0.021384187 -0.0036730692
000270 e0 3e f7 bb e0 b8 eb bb 9b 85 b9 b9 0f 40 da 3b
       -0.007545337 -0.0071936697 -0.00035385494 0.0066604684
000280 ae 02 c3 3b 27 35 a3 ba 73 8d ff 3a 45 a1 a5 b7
       0.005951247 -0.0012451754 0.0019497111 -1.974463e-05
000290 22 63 e9 3a f5 aa 68 3b 94 48 34 3b 1f 97 a7 3b
       0.0017806033 0.003550229 0.002750908 0.0051144506
0002a0 b9 9d be bb 12 ab 1a 3c a2 b2 28 bb b3 6d 49 ba
       -0.005817142 0.0094402 -0.002574124 -0.0007683888
0002b0 1c b9 43 ba f3 ba ea bb 95 d0 b2 3b 82 05 35 3b
       -0.0007466243 -0.0071633994 0.005456994 0.002762169
0002c0 85 f6 44 3c e2 89 b9 3a cf 4a f0 3b f5 3a 12 bb
       0.012021665 0.0014155472 0.0073331366 -0.0022312973
0002d0 4b 0a f3 39 49 9a 17 3c f2 78 4f bb 68 f2 c9 ba
       0.0004635624 0.009253093 -0.0031657782 -0.0015407326
0002e0 ad bd 37 3c 6b 9d cb 3b 8b eb f5 bb 4d 0d 17 3a
       0.011214656 0.006213834 -0.0075048856 0.0005762175
0002f0 93 cd 13 bb 6a 4c 8e 3a af 83 71 3b 30 5b 08 3c
       -0.0022552952 0.0010856513 0.0036852171 0.008322522
000300 e8 d2 e5 bb d4 5e 11 3b 2d 95 83 bb a7 c4 6a 3a
       -0.0070136674 0.0022181766 -0.004015586 0.0008955695
000310 87 95 c5 3b 45 7c 80 bb 7b 98 18 bc 93 8a cc bb
       0.006029788 -0.003921064 -0.009313698 -0.0062421053
000320 ad 63 6f 3b db 13 9a bb 2d d8 43 39 ef 96 98 3b
       0.0036527917 -0.004702074 0.00018677181 0.0046566646
000330 c3 9c 06 bc af 14 09 bc f3 f2 bc 3b 45 fa 85 3b
       -0.008216086 -0.008366748 0.0057662665 0.0040886723
000340 5d b3 36 bc 12 89 22 ba ca 82 70 bc ea 87 c9 bb
       -0.011151162 -0.00062002346 -0.01467962 -0.0061502354
000350 b5 07 b5 3b d3 2b e3 3b ab 9e c5 bb f6 83 95 bb
       0.0055246004 0.0069327145 -0.0060308776 -0.00456285
000360 45 28 28 bb 3b 1a 01 bc 9b b2 64 bb 45 ae 73 bb
       -0.0025658768 -0.007879789 -0.0034896496 -0.003718273
000370 25 11 b0 bb 26 ab 3d 3c 52 2f e8 ba 5d f2 9c 3b
       -0.0053731375 0.0115764495 -0.0017714298 0.004789634
000380 0b 89 cd bb 3c e7 05 ba 44 3d 95 3a d7 a2 05 3c
       -0.0062724403 -0.0005108004 0.0011386056 0.0081565
000390 87 84 57 bc 5f 06 45 3b 78 f3 e5 ba aa 4e cf bb
       -0.013154156 0.0030063612 -0.0017543873 -0.006326516
0003a0 fa d2 df ba 4c 71 4b 39 d8 5a 97 bb c8 94 53 ba
       -0.0017076426 0.00019401795 -0.0046189837 -0.00080711814
0003b0 e5 60 18 3c 1b e3 a1 bb bf a3 b6 3b 47 24 7e bb
       0.009300445 -0.004940403 0.0055737193 -0.0038778947
0003c0 5f f8 94 3c 83 e4 26 3c d8 52 4d bb 21 e0 c5 3a
       0.018184839 0.010186317 -0.0031329896 0.0015096703
0003d0 4c 43 90 bb eb f5 0d bb 79 a6 49 3c 0f 8b 8a ba
       -0.0044025537 -0.002166147 0.012307757 -0.0010570007
0003e0 2b 69 f1 bb 73 76 00 bb c3 f8 b8 3b 63 22 4a 3b
       -0.0073672733 -0.0019601851 0.005644889 0.003084325
0003f0 2f 04 02 3b f9 fa 2a bc 23 c3 90 bb ed f6 5a bc
       0.001983892 -0.010435813 -0.0044177934 -0.013364536

action_model._discrete_distribution.branches.0.bias f4 [6]
000000 00 00 00 00 00 00 00 00 00 00 00 00 00 00 00 00
       0.0 0.0 0.0 0.0
000010 00 00 00 00 00 00 00 00
       0.0 0.0

action_model._discrete_distribution.branches.1.weight f4 [6, 256]
000000 ef fd 08 bb 8a 46 1e ba 2c 14 0a 3b c3 d2 92 3b
       -0.002090331 -0.0006037733 0.0021069152 0.004480691
000010 d3 08 54 bb 03 c4 3b bc cb 74 b8 3b 6c 42 04 bc
       -0.0032353892 -0.011460307 0.005629157 -0.008072477
000020 fe 6b 20 3c bf 9f b7 3a f9 38 8e bb cf 58 a1 3b
       0.009791372 0.00140094 -0.0043402878 0.004923917
000030 a2 01 1c 3c 28 e0 e6 3b 5d 95 10 bb 4f ab 4a 3c
       0.009521874 0.0070457645 -0.0022061684 0.012369945
000040 4f a0 ab ba 72 66 6a bb 37 8f fe bb 33 03 3e bc
       -0.001309404 -0.0035766629 -0.0077685374 -0.011597442
000050 24 c9 2b 3c e7 ba 98 b8 4e bb 3a bb a3 fe ba 3b
       0.010484967 -7.282738e-05 -0.002849299 0.0057066246
000060 b8 ed 6e bb 67 56 ea bb 18 66 33 3b 53 92 bf 3a
       -0.003645761 -0.0071514132 0.0027374085 0.0014615752
000070 7a be ad 3b 58 9d f4 ba c3 1e 68 3b ca 31 7b 3a
       0.0053022476 -0.0018662615 0.0035418726 0.0009582309
000080 bd 02 f4 ba 5e e0 1b 3c d4 b9 0f 3b 3b b2 6c bb
       -0.0018616539 0.0095139425 0.002193083 -0.0036116976
000090 7c ef 03 bc e8 c4 d4 bb 7c 48 8d bb bd 83 f6 3a
       -0.008052703 -0.0064931996 -0.0043116193 0.0018807572
0000a0 b0 f7 59 bc 21 0e 30 bb e3 55 b8 3a ef 4d f6 3a
       -0.013303682 -0.002686389 0.0014063682 0.0018791537
0000b0 7a db 31 3c 2b 8f e5 bb 42 27 8e 3b bd c2 c9 b8
       0.01085555 -0.0070055923 0.004338176 -9.6207e-05
0000c0 9a 20 8e b9 82 dc a7 3b ef 5a e8 ba 78 1b e0 3a
       -0.0002710864 0.005122722 -0.0017727296 0.001709803
0000d0 f0 c4 76 bc ba bc ce bb 26 cc 88 bc 0f 32 25 3a
       -0.015061602 -0.006309119 -0.016698908 0.000630171
0000e0 08 9a 50 3b 15 62 fa 3b cf 71 92 3b 3b 41 00 3b
       0.003183009 0.007641087 0.0044691334 0.001957013
0000f0 a5 c3 93 ba 16 59 9a 3a ff f3 2b bc a1 06 01 3c
       -0.0011273517 0.0011775817 -0.010495185 0.007875116
000100 62 09 de bb 73 de 17 ba fd eb 3b 3b 0e 13 89 bb
       -0.006776021 -0.00057933404 0.0028674596 -0.0041831797
000110 34 6a ab ba 09 63 93 39 59 23 b5 ba 6f c3 0f bc
       -0.0013077916 0.00028111812 -0.0013819739 -0.008774622
000120 30 0a ee bb 68 e9 de bb 0b bf 1b ba d7 41 71 3a
       -0.007264398 -0.0068027265 -0.00059412484 0.00092032313
000130 19 f6 99 ba ac ad 31 bc b8 2b cf 3b 83 dd 6b bb
       -0.0011746316 -0.010844629 0.0063223504 -0.0035990186
000140 93 e3 86 bc dd 74 fb bb 5a 3d 65 b9 f4 94 cc 39
       -0.016465938 -0.0076738433 -0.00021861997 0.0003902089
000150 6d 37 54 3b d6 0e ae 3b dd fe da bb bd 3e 54 bb
       0.003238167 0.005311827 -0.006683214 -0.0032386028
000160 89 04 c9 bb bd 69 43 bb c3 c2 3e bc 5d 4f 94 bb
       -0.006134574 -0.0029817664 -0.0116431145 -0.0045260624
000170 7c 4c 06 37 2e fe 2b ba 2b 19 80 bb fa 59 a6 3b
       8.00483e-06 -0.0006561008 -0.0039092503 0.005076644
000180 e7 7b 07 3b 32 34 13 bb 1f 15 1e 3b 4f 4b 48 bc
       0.0020673217 -0.002246153 0.0024121476 -0.012224986
000190 24 30 45 3c ff fb f8 bb a0 0a 68 bb ab 11 df ba
       0.012035403 -0.0075983997 -0.0035406724 -0.0017018815
0001a0 d7 b6 9d b9 87 c0 2e 3c 28 f4 da 3a 65 cb b0 ba
       -0.000300816 0.010666019 0.0016704844 -0.0013488351
0001b0 90 80 dc 3b e5 fa 7b 3b 8f 46 0b bc 43 05 94 bb
       0.006729193 0.0038449105 -0.008500709 -0.004517229
0001c0 79 ed 15 3b 53 77 9e 3b bd 03 27 bb 0f b3 8a b9
       0.002287714 0.004836002 -0.0025484406 -0.0002645482
0001d0 67 ba 1a ba db e6 0f bc 4b 9d 5a b7 3d fb fd bb
       -0.000590241 -0.008783068 -1.3030435e-05 -0.007750897
0001e0 a2 9e 74 3a 9e 7c ab b8 92 8a a4 bb a1 f0 c5 bb
       0.00093314995 -8.177127e-05 -0.0050214017 -0.006040648
0001f0 e3 8b fb 3b a3 56 db 3b d8 d8 31 3c e0 96 f8 b8
       0.007676588 0.0066936775 0.010854922 -0.00011853664
000200 5f 98 2d bb 5d ac 06 3c db ac 6c 3b 8f 59 39 bb
       -0.0026488525 0.008219806 0.0036113772 -0.002828214
000210 db ea ea ba ef 86 68 3b b9 56 98 3b a8 62 37 3c
       -0.0017922776 0.0035480817 0.00464901 0.011192955
000220 88 44 0b 3a bb 71 8b 3b 9c f8 47 3c 52 d6 c1 bb
       0.0005312641 0.004255501 0.012205269 -0.0059154416
000230 b9 47 17 bb c5 c5 7a 3b 5b d9 e8 3a f4 e5 26 bb
       -0.0023083522 0.0038264852 0.0017764972 -0.0025466653
000240 17 8c c5 bb bd d5 e2 ba 27 bd 93 3a 27 12 11 bb
       -0.006028663 -0.0017306131 0.0011271582 -0.0022136064
000250 d3 b5 51 3c eb 15 b1 bb eb 2d 1c 3c c8 1c c0 ba
       0.012799698 -0.005404224 0.009532432 -0.0014657015
000260 b8 40 f0 ba b2 f3 26 3a f4 d6 9c 3b a5 c4 04 3c
       -0.0018329835 0.0006368711 0.0047863666 0.008103524
000270 c7 29 a9 3b 9d 2c 6e bc 58 97 e3 bb ce 83 86 bb
       0.005162451 -0.014537004 -0.006945532 -0.004105068
000280 63 ed ab 3b bd 56 25 bc 53 13 16 bb 8d 48 2f 3b
       0.0052468046 -0.010091481 -0.0022899702 0.0026746124
000290 2b 44 da bb 96 7a 80 3b 64 15 48 bc 9f 35 5f 3b
       -0.0066609583 0.0039208634 -0.012212131 0.003405906
0002a0 7d 1b eb 3a f5 74 3c 3b f4 f2 20 3c fa e3 69 3a
       0.0017937269 0.0028756235 0.00982355 0.0008922216
0002b0 fb c8 95 3b 2f cc 65 bc 4c a8 9a ba 58 3b 07 bc
       0.004571078 -0.014025732 -0.0011799424 -0.008253895
0002c0 8e a6 31 39 32 b7 51 3a ec e4 bf bb a5 48 e3 3a
       0.00016942082 0.00080000155 -0.005856147 0.0017340375
0002d0 a2 16 ee bb c0 07 d9 ba 5a f2 81 3a 57 63 3a bc
       -0.0072658816 -0.0016558096 0.0009914145 -0.0113762235
0002e0 05 bc 64 bb b5 5e 76 bb 33 a7 ca b9 c8 1a 7d ba
       -0.0034902107 -0.003759307 -0.00038653016 -0.0009655175
0002f0 17 a2 97 3b 68 4b 75 ba b7 a7 2a ba 60 c9 a2 bb
       0.004627477 -0.00093572447 -0.0006509977 -0.0049678534
000300 53 1e ad 3b b3 fc 38 3a 4f 94 9d bb d6 ba 13 bc
       0.005283156 0.0007056698 -0.0048089395 -0.009016713
000310 e0 81 f8 3b 48 ad a5 3b 44 be c9 bb ce 7f 8b ba
       0.0075838417 0.005056057 -0.0061567146 -0.0010642947
000320 e5 e7 56 3b 2d 24 f7 3b 82 05 f3 3b e3 c0 32 3c
       0.0032792029 0.0075421543 0.007416428 0.010910246
000330 97 5a d9 bb c9 b9 87 ba 7a 39 a2 3a 1d a6 7d 3b
       -0.0066331136 -0.0010355051 0.0012376748 0.0038703748
000340 70 63 18 3c 68 9c f6 b9 30 97 55 b9 d0 09 79 bc
       0.0093010515 -0.00047037308 -0.00020369585 -0.015200093
000350 66 77 96 3a fb 42 ad bb e2 d4 02 bb 2b 58 5b bc
       0.0011479675 -0.0052875257 -0.0019963314 -0.01338772
000360 7d fe 68 3c 23 bd ce 3b df df ad 3a c6 89 83 bb
       0.014220831 0.006309168 0.0013265571 -0.0040142266
000370 e9 da 35 bb 58 17 15 bb d5 95 fc bb 5d 34 3f bb
       -0.0027748889 -0.002274951 -0.007708291 -0.0029175498
000380 42 33 4e 3b 84 8f ca 3b 0f 98 32 bb 6a 99 0a bc
       0.0031463658 0.006181659 -0.0027251279 -0.008459428
000390 83 7c aa 3b 78 86 a7 3b 64 a8 95 bb d9 9f 30 39
       0.0052028312 0.0051124655 -0.004567193 0.00016844216
0003a0 53 0b ed 3b ab 94 5a bb eb cc 9d 3b ef cd 19 3c
       0.007234016 -0.0033352773 0.004815688 0.009387477
0003b0 d0 84 3a bc 57 e6 15 3c 5f b2 32 3c c3 90 1b b9
       -0.011384204 0.009149156 0.010906785 -0.0001483588
0003c0 cb 4e ea ba f3 a3 8d bb c2 75 57 3b 37 ac ba bb
       -0.0017876265 -0.004322523 0.0032876586 -0.005696799
0003d0 ac 11 32 3c ed d8 12 bb 37 d7 08 bb f7 94 4b bb
       0.010868471 -0.002240713 -0.0020880231 -0.0031064132
0003e0 9b e8 e0 39 d2 e1 ed 3b 08 d0 81 3c d7 6d 8b bb
       0.00042897914 0.007259586 0.015846267 -0.0042550373
0003f0 0f 20 c4 3a d2 f4 5a ba 9b 32 f9 b9 5f 19 c4 3b
       0.0014963167 -0.0008352521 -0.00047530685 0.00598447

action_model._discrete_distribution.branches.1.bias f4 [6]
000000 00 00 00 00 00 00 00 00 00 00 00 00 00 00 00 00
       0.0 0.0 0.0 0.0
000010 00 00 00 00 00 00 00 00
       0.0 0.0

action_model._discrete_distribution.branches.2.weight f4 [5, 256]
000000 f3 21 d9 bb a2 aa 67 bb 36 29 0d 3c cb 85 c4 b9
       -0.0066263615 -0.0035349508 0.0086157825 -0.00037483717
000010 5f ee c4 ba b3 7a 9c 3b 1b df 73 3b 3f 33 58 3b
       -0.0015024653 0.004775369 0.0037211839 0.003298953
000020 3b 98 a1 3c 3d 2c d6 3b db f4 9a bc 1e 7e 41 bc
       0.01972591 0.0065360353 -0.018915584 -0.011809854
000030 2b 1a 6a 3c 82 3d c6 ba 2b f4 6b 39 e5 91 b6 3a
       0.0142884655 -0.0015124532 0.00022502306 0.0013928978
000040 62 dc 0c bc 8d 24 6d ba 45 a5 0f bb 17 5f 28 3c
       -0.008597465 -0.0009046279 -0.0021918577 0.010276577
000050 19 17 2d 3a 82 6c d6 3a a5 d4 03 bb 5f ca e5 3a
       0.0006602868 0.0016359242 -0.002011576 0.0017531625
000060 70 2c d7 bb 13 1b 05 3c 65 d5 57 3b ab eb 90 bc
       -0.0065665767 0.008124131 0.003293359 -0.0176905
000070 8f c6 80 3b f2 82 87 bc 0f 87 a5 3b 9f 81 23 3c
       0.00392992 -0.016541932 0.0050515006 0.009979635
000080 4a ee fb 3b 18 83 9b bb 31 6e 3d 3b 4f 41 56 3b
       0.0076883184 -0.004745852 0.002890479 0.0032692736
000090 e7 41 9c 3a 35 2b ca ba ed 49 b5 bb d8 2d 39 3b
       0.0011921496 -0.0015424254 -0.0055324943 0.0028256085
0000a0 eb f7 57 3b 6d 52 25 3a f8 49 00 3a ab 76 c6 3a
       0.0032954167 0.0006306533 0.00048938347 0.0015141567
0000b0 b8 4f c6 bb 37 18 1f bc 82 2f ae 3a 4d bf 6d ba
       -0.0060519837 -0.009710363 0.0013289305 -0.00090693386
0000c0 c5 83 29 bb c5 18 81 3b b6 ab 2b 3c 32 18 51 3b
       -0.0025865894 0.0039397203 0.010477951 0.003190529
0000d0 e7 bb 14 bb 8d d0 14 bb 65 f5 f0 3b 00 a8 29 bb
       -0.0022695006 -0.0022707314 0.007353472 -0.002588749
0000e0 6a 91 de 3b 6a 9a 28 3b 19 d6 b1 bb 37 61 32 3c
       0.006792237 0.0025726804 -0.0054271338 0.010887436
0000f0 80 34 74 bb 1c 52 1a 3c ac 83 96 bb 68 14 7e bc
       -0.0037262738 0.00941899 -0.004593333 -0.015507795
000100 ef 24 cf bb 6f 6e 84 bb c8 4d 00 3c 65 24 27 3a
       -0.0063215415 -0.004041485 0.0078310445 0.00063759676
000110 e0 e8 83 3b aa ec 23 3b b8 c8 8f 3a 19 49 1f 3b
       0.0040255636 0.002501289 0.0010969853 0.0024305044
000120 75 5a fd b7 3c c0 47 ba 4b 37 71 bb 9b 38 2b bb
       -3.0202073e-05 -0.0007619893 -0.0036806639 -0.0026126269
000130 ba 51 01 bc 3b 1d 1d 3c 18 7a 84 3b 38 11 f2 3b
       -0.00789302 0.009589489 0.004042875 0.0073873065
000140 78 c9 25 3c d3 83 2b bc 17 94 8b bb 1e 30 a1 b9
       0.010118835 -0.010468441 -0.004259597 -0.00030744163
000150 17 2d 84 3c 6d 4d 04 3c e0 4d 9e bb de 84 95 b8
       0.016134782 0.0080751 -0.004831061 -7.129622e-05
000160 3b e5 5d 3b 47 e4 78 bc 0d 03 7a bb 60 11 d6 3b
       0.0033858556 -0.015191144 -0.003814879 0.006532833
000170 aa 05 0d 3c 2a 1b 3a 3a 80 83 10 3c ca 7d d7 b9
       0.008607307 0.00070993847 0.008820415 -0.00041101716
000180 c8 8c b8 3a f2 01 e7 3a 8d 87 54 3b 92 2b d1 39
       0.0014080042 0.0017624481 0.0032429427 0.0003989605
000190 72 d4 88 3b 7d 32 ce 3a 87 23 ea 3b 7b c5 ad 3b
       0.004175716 0.0015731599 0.0071453485 0.0053030825
0001a0 30 06 b6 bb de de b6 ba b1 f8 bf ba 7d 63 d7 bb
       -0.005554937 -0.0013951918 -0.0014646259 -0.006573139
0001b0 d4 fd ca bb c3 62 14 3c c0 8c 6d 3a eb f0 9a ba
       -0.0061948095 0.00905675 0.0009061806 -0.0011821067
0001c0 3d d1 a0 3a d3 aa 94 bb ff d6 9f ba 9b 50 0f bb
       0.0012269389 -0.0045369654 -0.0012194811 -0.0021868113
0001d0 4b f2 a6 b9 bb 33 92 ba cb 10 c7 3b 67 4f b5 bb
       -0.0003184251 -0.0011154333 0.006075 -0.005533147
0001e0 03 86 f2 3b 92 10 0c bb 4d ba a0 3b 47 27 97 bb
       0.0074012293 -0.0021372181 0.0049050213 -0.0046128365
0001f0 5a 17 29 3a bb 52 00 3b 68 27 c8 bb 37 bb 4d bb
       0.0006450318 0.0019580561 -0.006108213 -0.0031392106
000200 e3 b8 51 b9 d1 98 c8 3b c0 55 d6 3a 8e 8f 05 3b
       -0.00020000669 0.0061217328 0.001635246 0.0020379755
000210 e3 a7 af 38 73 43 33 3c 46 76 35 bc ef 8d d6 3b
       8.3759216e-05 0.010941374 -0.011075562 0.0065476815
000220 9f 58 33 3b c7 b5 2f 3c 8f 10 64 b9 bf 99 2e bc
       0.0027366055 0.010724491 -0.00021749943 -0.010656773
000230 e1 bc 83 3b 3a fc 3d bc 94 c1 3a 3a d9 e8 47 3c
       0.004020319 -0.01159578 0.00071241823 0.012201511
000240 ef 04 a6 ba e2 c2 2e 3c 00 11 63 3a b7 dd 00 bc
       -0.0012666265 0.010666581 0.0008661896 -0.007865361
000250 ff 76 6f bb 0a f7 2c 39 08 5e 69 bc 37 d2 8b ba
       -0.0036539433 0.00016495227 -0.01424361 -0.0010667507
000260 b9 30 bc bb 2d 52 d0 bb 41 ee 12 3b 6e 14 20 ba
       -0.005743113 -0.0063574524 0.0022419842 -0.000610656
000270 73 ad d0 bb 2c 27 c9 3a 68 1e e6 ba 1d e4 8c 3b
       -0.006368333 0.0015346757 -0.0017556669 0.004299654
000280 b7 75 8f 3b 62 cc 46 bb 38 ca f0 39 90 b7 0d 3a
       0.0043780464 -0.0030334224 0.00045927032 0.0005406076
000290 75 5d a0 ba 8a b9 0e bb 88 30 39 bb 37 01 b7 3a
       -0.0012234884 -0.002177807 -0.0028257687 0.0013962154
0002a0 f7 4f bc bb 57 b9 a4 3a 14 8a a1 3b 73 2a 5c 3b
       -0.0057468372 0.0012567443 0.0049297903 0.0033594638
0002b0 2d 69 41 3a 70 27 ee 3a a2 ce 38 bb 1a a1 6c bb
       0.0007378038 0.0018169712 -0.0028199335 -0.0036106766
0002c0 78 e1 39 bc f7 ef e5 bb 35 c7 c8 3b 2b b7 bd ba
       -0.01134526 -0.0070171314 0.006127263 -0.0014474144
0002d0 0f b8 be 3b a4 2c a3 3b ea 6e 3c 3b 68 84 a7 3a
       0.0058202813 0.004979687 0.0028752633 0.0012780549
0002e0 ad 90 cd 3a e3 db 42 3a 5e 09 12 bb 5d 4e 33 bc
       0.0015683376 0.00074332784 -0.0022283415 -0.010943976
0002f0 5a 6e 18 bb ff f8 b6 bb 87 8a f6 3a ef c8 ca 3b
       -0.0023259134 -0.005583882 0.0018809595 0.006188504
000300 45 79 e3 3a 97 e6 8e ba 70 9e 0a ba 6d 69 6e 3b
       0.0017354867 -0.0010902461 -0.0005287891 0.0036378757
000310 88 0b 46 bb c3 fb 11 bc a6 12 26 3c a3 e6 3d bc
       -0.0030219276 -0.008910122 0.010136282 -0.011590633
000320 75 0c b1 bb da 47 e2 3b 40 1d d2 3a a3 ec 01 bc
       -0.0054030963 0.006905538 0.0016030446 -0.007929954
000330 d2 32 7e 3b 6f 1b 91 bb cf 1e 66 3b d2 a7 49 bc
       0.0038787615 -0.004428319 0.0035113578 -0.012308078
000340 e5 3c 6f bb 5a a0 dd bb 1d 51 05 3b 85 a0 0c bc
       -0.0036504802 -0.0067635 0.0020342537 -0.008583193
000350 23 4f b9 3b 5f c1 29 ba 59 b6 a4 ba e7 f6 ec 3b
       0.005655186 -0.0006475653 -0.0012566551 0.0072315815
000360 aa 91 12 bc 65 20 4f 3b 7c 26 8c 3b aa 72 81 3b
       -0.008945862 0.0031605002 0.0042770486 0.0039504366
000370 63 8e 34 bb a2 5c 8c 3b ed d3 8d bb af ba 9a ba
       -0.002755069 0.0042835036 -0.004328242 -0.0011804904
000380 33 f0 46 bb 27 eb 07 ba a7 dd 48 3b 62 02 a7 bb
       -0.0030355572 -0.0005184882 0.0030649693 -0.0050967196
000390 28 c4 80 3a 67 d5 ce 38 5c 31 a6 3b 9d d7 dc bb
       0.0009824084 9.862595e-05 0.005071802 -0.0067395703
0003a0 a7 2c 03 3b f3 d1 60 3b b4 0c 9b b9 e3 fd c5 ba
       0.0020015629 0.0034304827 -0.00029573368 -0.0015105571
0003b0 9d cf c6 3b b0 0b 76 3b 1f 47 9b bb ed 9b 0d 3c
       0.00606723 0.0037543587 -0.004738703 0.008643133
0003c0 13 ba 10 3c dd 34 dc bb 1e b1 09 bb d3 e0 e2 3b
       0.008833426 -0.006720169 -0.002101011 0.006923774
0003d0 2d 6c e4 b9 7a 14 48 3a 3f 1c c4 38 8a 36 96 3b
       -0.00043568146 0.0007632446 9.3512695e-05 0.0045841383
0003e0 df 4e 08 3b f6 4c 25 bb 6b 2c 59 bc 6b b9 3c bc
       0.0020798964 -0.0025222874 -0.013255219 -0.011518816
0003f0 b6 95 94 3b 9d cc 4e ba 4e 41 3b b7 ac 7c b8 3b
       0.0045344485 -0.0007888766 -1.11612735e-05 0.0056300964

action_model._discrete_distribution.branches.2.bias f4 [5]
000000 00 00 00 00 00 00 00 00 00 00 00 00 00 00 00 00
       0.0 0.0 0.0 0.0
000010 00 00 00 00
       0.0
