Assets/AI/LPOpponent.onnx (onnx, 288854 bytes, 11 tensors)

discrete_act_size_vector f4 [1, 3]
6.0 6.0 5.0
00000000: 0000 c040 0000 c040 0000 a040

network_body._body_endoder.seq_layers.0.weight f4 [256, 3]
0.68177706 -0.15960512 -0.35217297 -0.020583391 -0.6160812 0.38370937 -0.7400842 0.055729732
-0.030034361 0.227589 -0.27483323 0.47995913 -0.030532725 -0.19482395 1.575759 -0.13849232
0.13315304 0.39878985 1.254888 -0.052063968 0.28010967 -0.45366722 -0.056070194 -0.5037291
0.036414154 0.26236093 0.002362652 1.0699775 0.082347356 0.49285296 -0.42378843 -0.27287212
-0.53369415 -1.2457095 0.47452274 -0.56769276 -0.36094576 -0.6916581 0.19982564 -0.8488187
-0.13392785 -0.20530453 0.38347632 0.974486 0.91421825 -0.48315397 0.30576226 0.13162464
-0.52408427 -1.1277167 0.4826169 -0.33873788 0.13310587 -0.4105221 -0.60899 0.025085203
-0.28464323 0.18279463 -0.09392026 -0.13109447 -0.21758495 -1.0934323 1.6067708 0.2630576
0.5264858 -0.12424263 0.39769205 1.1481522 0.26709458 -0.40241376 -0.062281042 -0.54566926
0.20956068 -1.0414243 0.3896745 -0.18897533 -0.12945795 -0.12254406 -0.84906197 -0.034223776
-0.75420135 0.058344733 -0.17581779 0.09645966 -0.018208193 0.129176 0.6104081 -0.043436643
-0.3718274 -0.16680658 -0.060317013 0.5660133 0.13813686 0.2907086 0.19484547 0.111355536
0.05374331 -0.054391276 1.7245908 -0.12005174 0.010297023 -0.434382 0.42930937 -0.6567411
-0.14021207 -0.040218804 -1.1549401 -0.7912262 0.15814786 0.15841812 0.8676469 -0.4181756
1.509453 -0.09530014 0.16883293 0.10529996 0.81451595 -1.4468582 -0.9066292 0.61550117
-0.18650839 -0.024745887 0.7712711 1.0461886 0.7946895 -0.403096 0.5615603 -0.4974596
0.010556819 -0.00050786865 -1.0400372 -0.4081945 0.33897594 0.5500493 0.55092853 -0.3178154
-0.5653828 -1.305923 0.20355108 0.37749392 0.34402233 -0.31061107 0.16228183 -0.66525143
-0.32502505 -0.69301623 0.35574192 0.37859526 0.13799521 0.53804344 -0.28499582 0.5519984
0.35015482 -0.094429284 -0.0767809 -0.8580162 -0.28262773 0.7326774 -0.23569687 0.2587085
0.015844416 1.0021412 1.0199473 -0.484602 -0.6911042 0.6865191 0.93559223 -0.1631298
0.6191116 -0.043635264 -0.77764994 -0.8728976 -0.88351893 0.14876963 -0.03026825 0.07086978
-0.89390475 -0.08389412 0.5458383 0.4042522 0.60939544 0.7835363 -0.21839714 -0.17286336
0.15790033 -0.51662374 -0.39335805 -0.41729897 -0.18486197 -0.04569802 0.4619674 -0.42969152
0.8321064 -0.0117025245 1.0003844 -0.72784835 0.097538784 0.21797971 -0.22330643 0.30265847
0.16878103 0.24203196 -0.4201631 0.2961604 0.3859059 -0.7134632 -0.73485476 0.8130245
1.916603 0.82965666 -0.5715207 -1.0357401 0.0664302 -0.80458534 -0.75126994 1.1402487
-0.039121278 -0.5896004 0.26409626 -0.15525556 0.69802886 -0.8887993 -0.648048 -0.3235001
-0.4776798 0.34260026 -1.1872543 0.1653484 0.40851593 -0.24300008 -0.25829804 0.25840682
-0.79716486 -0.3939477 -0.6803002 0.1143627 -0.34161383 0.51635915 -0.65311694 -0.27084035
-0.16146901 1.4246521 0.7826382 0.28304967 -0.026426677 -0.5102168 -0.64782214 0.114993595
-0.069234274 0.20732042 0.23065233 -0.32855156 -0.4241093 -0.91546714 -0.55328655 -0.025067884
00000000: f188 2e3f 866f 23be 0450 b4be 809e a8bc
00000010: 7fb7 1dbf 8e75 c43e 2876 3dbf dc44 643d
00000020: 9f0a f6bc 170d 693e f1b6 8cbe 34bd f53e
00000030: c41f fabc ee7f 47be 79b2 c93f eed0 0dbe
00000040: 4559 083e 2f2e cc3e 2ca0 a03f 0741 55bd
00000050: 896a 8f3e 1247 e8be dca9 65bd 64f4 00bf
00000060: 0227 153d 2c54 863e b9d6 1a3b 06f5 883f
00000070: bba5 a83d 3957 fc3e ccfa d8be e5b5 8bbe
00000080: 2ea0 08bf 6973 9fbf a5f4 f23e 5054 11bf
00000090: e2cd b8be 8110 31bf 189f 4c3e 2f4c 59bf
000000a0: 6224 09be 5a3b 52be 0257 c43e ea77 793f
000000b0: 350a 6a3f f55f f7be df8c 9c3e 9cc8 063e
000000c0: 632a 06bf 0559 90bf 9019 f73e 0d6f adbe
000000d0: e84c 083e f42f d2be c5e6 1bbf 7c7f cd3c
000000e0: c2bc 91be 842e 3b3e 4459 c0bd a13d 06be
000000f0: 97ce 5ebe 97f5 8bbf aaaa cd3f 7caf 863e
00000100: c6c7 063f ec72 febd 4b9e cb3e a7f6 923f
00000110: 9fc0 883e 2d09 cebe 681a 7fbd fbb0 0bbf
00000120: 1397 563e 644d 85bf 6b83 c73e c082 41be
00000130: a090 04be 61f8 fabd 205c 59bf 3b2e 0cbd
00000140: 5713 41bf e3fa 6e3d 9409 34be a48c c53d
00000150: 5929 95bc b746 043e b543 1c3f 9fea 31bd
00000160: 2960 bebe 58cf 2abe f90e 77bd 3fe6 103f
00000170: c073 0d3e c2d7 943e 9285 473e 5f0e e43d
00000180: f221 5c3d 63c9 5ebd 64bf dc3f b0dd f5bd
00000190: d8b4 283c 5167 debe 70ce db3e 2f20 28bf
000001a0: c193 0fbe 79bc 24bd 14d5 93bf cd8d 4abf
000001b0: 83f1 213e 5c38 223e 1b1e 5e3f 1d1b d6be
000001c0: c235 c13f b82c c3bd 8ae2 2c3e 81a7 d73d
000001d0: 1e84 503f a632 b9bf da18 68bf 7c91 1d3f
000001e0: 0efc 3ebe e3b7 cabc 0672 453f 82e9 853f
000001f0: c570 4b3f 9962 cebe 6ac2 0f3f 06b3 febe
00000200: 82f6 2c3c 7d22 05ba f01f 85bf dffe d0be
00000210: 418e ad3e 08d0 0c3f a709 0d3f b3b8 a2be
00000220: edbc 10bf 7c28 a7bf b26f 503e e246 c13e
00000230: b223 b03e 6a08 9fbe 352d 263e eb4d 2abf
00000240: af69 a6be 8369 31bf ce23 b63e 3dd7 c13e
00000250: 9e4e 0d3e 37bd 093f f9ea 91be c44f 0d3f
00000260: 7e47 b33e 2464 c1bd 4e3f 9dbd f3a6 5bbf
00000270: 95b4 90be bf90 3b3f 855a 71be 7175 843e
00000280: 26cc 813c 2a46 803f a28d 823f c11d f8be
00000290: 34ec 30bf b7bf 2f3f f982 6f3f 800b 27be
000002a0: 197e 1e3f e4ba 32bd 1114 47bf 3876 5fbf
000002b0: 4c2e 62bf 1157 183e 1ff5 f7bc 2d24 913d
000002c0: f1d6 64bf aed0 abbd 0fbc 0b3f 25fa ce3e
000002d0: 5701 1c3f d695 483f 80a3 5fbe 1803 31be
000002e0: a0b0 213e 7441 04bf 3a66 c9be 36a8 d5be
000002f0: 754c 3dbe d92d 3bbd fe86 ec3e 8700 dcbe
00000300: ed04 553f f2bb 3fbc 990c 803f 4554 3abf
00000310: 6ac2 c73d 1336 5f3e 71aa 64be 0df6 9a3e
00000320: efd4 2c3e 3ad7 773e 9e1f d7be 56a2 973e
00000330: 7595 c53e 86a5 36bf 711f 3cbf 6022 503f
00000340: 3f53 f53f 6164 543f 2e4f 12bf 2293 84bf
00000350: 8f0c 883d 4ef9 4dbf 3a53 40bf abf3 913f
00000360: a23d 20bd 0df0 16bf a037 873e 50fb 1ebe
00000370: 05b2 323f 5a88 63bf 79e6 25bf cea1 a5be
00000380: 7292 f4be 4d69 af3e f3f7 97bf 1751 293e
00000390: 0029 d13e 03d5 78be a43f 84be e64d 843e
000003a0: ff12 4cbf 83b3 c9be 2728 2ebf fe36 ea3d
000003b0: 02e8 aebe 1d30 043f ac32 27bf 96ab 8abe
000003c0: 2258 25be 005b b63f fa5a 483f e3eb 903e
000003d0: c27c d8bc 919d 02bf acd7 25bf c381 eb3d
000003e0: b3ca 8dbd ce4b 543e 2030 6c3e e937 a8be
000003f0: db24 d9be 0e5c 6abf 30a4 0dbf 2a5b cdbc

network_body._body_endoder.seq_layers.0.bias f4 [256]
0.0 0.0 0.0 0.0 0.0 0.0 0.0 0.0
0.0 0.0 0.0 0.0 0.0 0.0 0.0 0.0
0.0 0.0 0.0 0.0 0.0 0.0 0.0 0.0
0.0 0.0 0.0 0.0 0.0 0.0 0.0 0.0
0.0 0.0 0.0 0.0 0.0 0.0 0.0 0.0
0.0 0.0 0.0 0.0 0.0 0.0 0.0 0.0
0.0 0.0 0.0 0.0 0.0 0.0 0.0 0.0
0.0 0.0 0.0 0.0 0.0 0.0 0.0 0.0
0.0 0.0 0.0 0.0 0.0 0.0 0.0 0.0
0.0 0.0 0.0 0.0 0.0 0.0 0.0 0.0
0.0 0.0 0.0 0.0 0.0 0.0 0.0 0.0
0.0 0.0 0.0 0.0 0.0 0.0 0.0 0.0
0.0 0.0 0.0 0.0 0.0 0.0 0.0 0.0
0.0 0.0 0.0 0.0 0.0 0.0 0.0 0.0
0.0 0.0 0.0 0.0 0.0 0.0 0.0 0.0
0.0 0.0 0.0 0.0 0.0 0.0 0.0 0.0
0.0 0.0 0.0 0.0 0.0 0.0 0.0 0.0
0.0 0.0 0.0 0.0 0.0 0.0 0.0 0.0
0.0 0.0 0.0 0.0 0.0 0.0 0.0 0.0
0.0 0.0 0.0 0.0 0.0 0.0 0.0 0.0
0.0 0.0 0.0 0.0 0.0 0.0 0.0 0.0
0.0 0.0 0.0 0.0 0.0 0.0 0.0 0.0
0.0 0.0 0.0 0.0 0.0 0.0 0.0 0.0
0.0 0.0 0.0 0.0 0.0 0.0 0.0 0.0
0.0 0.0 0.0 0.0 0.0 0.0 0.0 0.0
0.0 0.0 0.0 0.0 0.0 0.0 0.0 0.0
0.0 0.0 0.0 0.0 0.0 0.0 0.0 0.0
0.0 0.0 0.0 0.0 0.0 0.0 0.0 0.0
0.0 0.0 0.0 0.0 0.0 0.0 0.0 0.0
0.0 0.0 0.0 0.0 0.0 0.0 0.0 0.0
0.0 0.0 0.0 0.0 0.0 0.0 0.0 0.0
0.0 0.0 0.0 0.0 0.0 0.0 0.0 0.0
00000000: 0000 0000 0000 0000 0000 0000 0000 0000
00000010: 0000 0000 0000 0000 0000 0000 0000 0000
00000020: 0000 0000 0000 0000 0000 0000 0000 0000
00000030: 0000 0000 0000 0000 0000 0000 0000 0000
00000040: 0000 0000 0000 0000 0000 0000 0000 0000
00000050: 0000 0000 0000 0000 0000 0000 0000 0000
00000060: 0000 0000 0000 0000 0000 0000 0000 0000
00000070: 0000 0000 0000 0000 0000 0000 0000 0000
00000080: 0000 0000 0000 0000 0000 0000 0000 0000
00000090: 0000 0000 0000 0000 0000 0000 0000 0000
000000a0: 0000 0000 0000 0000 0000 0000 0000 0000
000000b0: 0000 0000 0000 0000 0000 0000 0000 0000
000000c0: 0000 0000 0000 0000 0000 0000 0000 0000
000000d0: 0000 0000 0000 0000 0000 0000 0000 0000
000000e0: 0000 0000 0000 0000 0000 0000 0000 0000
000000f0: 0000 0000 0000 0000 0000 0000 0000 0000
00000100: 0000 0000 0000 0000 0000 0000 0000 0000
00000110: 0000 0000 0000 0000 0000 0000 0000 0000
00000120: 0000 0000 0000 0000 0000 0000 0000 0000
00000130: 0000 0000 0000 0000 0000 0000 0000 0000
00000140: 0000 0000 0000 0000 0000 0000 0000 0000
00000150: 0000 0000 0000 0000 0000 0000 0000 0000
00000160: 0000 0000 0000 0000 0000 0000 0000 0000
00000170: 0000 0000 0000 0000 0000 0000 0000 0000
00000180: 0000 0000 0000 0000 0000 0000 0000 0000
00000190: 0000 0000 0000 0000 0000 0000 0000 0000
000001a0: 0000 0000 0000 0000 0000 0000 0000 0000
000001b0: 0000 0000 0000 0000 0000 0000 0000 0000
000001c0: 0000 0000 0000 0000 0000 0000 0000 0000
000001d0: 0000 0000 0000 0000 0000 0000 0000 0000
000001e0: 0000 0000 0000 0000 0000 0000 0000 0000
000001f0: 0000 0000 0000 0000 0000 0000 0000 0000
00000200: 0000 0000 0000 0000 0000 0000 0000 0000
00000210: 0000 0000 0000 0000 0000 0000 0000 0000
00000220: 0000 0000 0000 0000 0000 0000 0000 0000
00000230: 0000 0000 0000 0000 0000 0000 0000 0000
00000240: 0000 0000 0000 0000 0000 0000 0000 0000
00000250: 0000 0000 0000 0000 0000 0000 0000 0000
00000260: 0000 0000 0000 0000 0000 0000 0000 0000
00000270: 0000 0000 0000 0000 0000 0000 0000 0000
00000280: 0000 0000 0000 0000 0000 0000 0000 0000
00000290: 0000 0000 0000 0000 0000 0000 0000 0000
000002a0: 0000 0000 0000 0000 0000 0000 0000 0000
000002b0: 0000 0000 0000 0000 0000 0000 0000 0000
000002c0: 0000 0000 0000 0000 0000 0000 0000 0000
000002d0: 0000 0000 0000 0000 0000 0000 0000 0000
000002e0: 0000 0000 0000 0000 0000 0000 0000 0000
000002f0: 0000 0000 0000 0000 0000 0000 0000 0000
00000300: 0000 0000 0000 0000 0000 0000 0000 0000
00000310: 0000 0000 0000 0000 0000 0000 0000 0000
00000320: 0000 0000 0000 0000 0000 0000 0000 0000
00000330: 0000 0000 0000 0000 0000 0000 0000 0000
00000340: 0000 0000 0000 0000 0000 0000 0000 0000
00000350: 0000 0000 0000 0000 0000 0000 0000 0000
00000360: 0000 0000 0000 0000 0000 0000 0000 0000
00000370: 0000 0000 0000 0000 0000 0000 0000 0000
00000380: 0000 0000 0000 0000 0000 0000 0000 0000
00000390: 0000 0000 0000 0000 0000 0000 0000 0000
000003a0: 0000 0000 0000 0000 0000 0000 0000 0000
000003b0: 0000 0000 0000 0000 0000 0000 0000 0000
000003c0: 0000 0000 0000 0000 0000 0000 0000 0000
000003d0: 0000 0000 0000 0000 0000 0000 0000 0000
000003e0: 0000 0000 0000 0000 0000 0000 0000 0000
000003f0: 0000 0000 0000 0000 0000 0000 0000 0000

network_body._body_endoder.seq_layers.2.weight f4 [256, 256]
0.11249698 -0.09377537 -0.0864602 -0.05733449 0.07480092 0.010685353 0.022613652 0.048687328
-0.018150698 -0.026325949 0.040633816 0.002016646 0.02647541 0.017151704 -0.019562602 -0.040397216
-0.11703721 0.010232237 -0.09950652 0.017957253 0.05565665 0.071848705 -0.10464117 0.025097026
-0.03418003 -0.00064865395 0.04062024 -0.113528125 -0.06512803 -0.045331884 -0.059363335 -0.0010570382
0.014852535 0.004457221 0.03874243 0.005254305 0.024928331 0.043840636 0.0335459 -0.13673542
0.030556407 0.07633301 -0.14755304 0.04700896 0.026710737 -0.07245436 -0.05122755 -0.014820616
-0.041694764 -0.066809304 -0.10777038 0.030662356 0.01763905 0.07036932 0.23146786 0.05955587
-0.00063518074 0.023911495 0.0068272953 -0.17338005 0.027836554 0.05339033 0.051147707 -0.06431814
0.0072636036 0.027777586 -0.020431299 0.06609536 0.06438027 -0.0035005047 0.043308623 0.089185186
0.017776957 0.07066042 0.056314867 -0.030711824 0.050959732 0.09394322 0.08051778 0.029179972
0.042630687 -0.17232776 0.03974205 -0.04418231 -0.060276516 0.014571303 0.014383723 -0.010353453
0.029842995 -0.06461505 -0.027140934 0.024195151 -0.04231077 0.021636454 0.009238907 -0.059493106
-0.06464113 -0.08314257 -0.021775806 -0.061573096 0.018489247 -0.027511293 0.04992198 -0.05305795
0.14754483 -0.012926115 0.0030070862 -0.038037784 -0.018336797 0.089929506 0.00011085597 0.0013597155
-0.019629069 0.09562255 0.009101657 -0.016061625 -0.07088845 0.08015356 -0.05318602 0.054842547
-0.014770744 -0.06793417 -0.007897008 0.060722746 -0.074358076 -0.016619297 0.032568358 0.052405957
0.034600813 0.03372513 -0.11163847 0.022344494 0.034950312 -0.059263576 -0.11467747 -0.13993272
-0.087628625 -0.060965616 -0.03257251 0.009234022 0.040253434 0.04784779 0.090261705 0.054047987
0.002615366 -0.21020433 0.027042773 -0.07035484 -0.03879716 -0.006059305 -0.10456192 0.015096601
-0.03866199 -0.011425635 0.004133697 -0.06664757 0.0940218 -0.05851906 0.06982304 -0.049150925
-0.092300095 0.0515239 -0.007982572 0.02621781 0.015551454 0.050238866 0.18851508 0.116459675
0.009066409 0.031556346 -0.052326094 -0.010031793 0.02453009 0.08651714 0.0025255762 0.020659843
-0.15890065 0.10998699 0.0039500976 0.08819937 0.07080777 -0.03210033 0.0094549125 0.042316288
-0.025290914 0.033426292 0.048514504 0.027074577 0.03743351 0.016077206 0.038999412 -0.012017406
0.08177889 0.059533253 -0.0659806 0.064581625 -0.01134657 0.02999891 0.06441422 -0.012631758
-0.05223312 0.0628509 -0.12801538 -0.018952651 0.0017836102 -0.022892341 -0.0056555266 0.016475534
-0.14125642 -0.04529024 -0.032066636 -0.072810695 -0.0034720048 -0.027559081 0.011780465 0.069055945
0.10282461 0.08333277 0.0025081057 0.08381378 0.045487132 -0.09855953 -0.03052612 0.03340935
0.045454934 -0.0063673323 -0.042428914 0.05556926 0.0013268024 -0.024334705 -0.058910962 -0.029193
0.020248674 -0.08960409 -0.0240331 -0.08513618 0.009086975 -0.040327772 -0.012396941 0.056439333
0.11190017 0.013290893 -0.02767613 -0.10557809 -0.011756674 0.008857958 0.06524539 0.06473989
0.0143916765 0.051508278 -0.06533543 -0.0037377423 0.01068738 0.037977617 0.09629517 0.03835065
00000000: d164 e63d 4d0d c0bd 0c12 b1bd 92d7 6abd
00000010: 3a31 993d 9e11 2f3c 4440 b93c 5d6c 473d
00000020: c6b0 94bc 84a9 d7bc a56f 263d b529 043b
00000030: f6e2 d83c bb81 8c3c c041 a0bc 8d77 25bd
00000040: 34b1 efbd 1da5 273c 13ca cbbd 171b 933c
00000050: 3af8 633d 6a25 933d 1c4e d6bd 4798 cd3c
00000060: 5c00 0cbd 6e0a 2aba 6961 263d 6f81 e8bd
00000070: d861 85bd edad 39bd f826 73bd 518c 8aba
00000080: 0c58 733c e10d 923b 62b0 1e3d 4e2c ac3b
00000090: 8036 cc3c 3d92 333d 6d67 093d 5f04 0cbe
000000a0: 6e51 fa3c 7b54 9c3d 2518 17be 788c 403d
000000b0: 7ad0 da3c f462 94bd fbd3 51bd 2bd2 72bc
000000c0: 21c8 2abd 51d3 88bd b8b6 dcbd 9f2f fb3c
000000d0: c57f 903c ca1d 903d e905 6d3e dbf0 733d
000000e0: 4282 26ba 0ae2 c33c 81b7 df3b 8a8a 31be
000000f0: 7c09 e43c d2af 5a3d 4280 513d 3bb9 83bd
00000100: 8603 ee3b d28d e33c 8a5f a7bc 015d 873d
00000110: ced9 833d b968 65bb 6264 313d b9a6 b63d
00000120: fba0 913c 69b6 903d 6baa 663d 5d97 fbbc
00000130: 27bb 503d 4e65 c03d 81e6 a43d d60a ef3c
00000140: 849d 2e3d b076 30be 8fc8 223d 83f8 34bd
00000150: 82e4 76bd 79bc 6e3c b5a9 6b3c 88a1 29bc
00000160: 4c79 f43c e554 84bd aa56 debc e934 c63c
00000170: 0f4e 2dbd ef3e b13c c95e 173c 0baf 73bd
00000180: 9262 84bd a746 aabd 2d63 b2bc 1234 7cbd
00000190: c376 973c 5d5f e1bc fd7a 4c3d 4b53 59bd
000001a0: fe15 173e 0ec8 53bc 8912 453b 82cd 1bbd
000001b0: 0d37 96bc f62c b83d 597b e838 7b38 b23a
000001c0: 24cd a0bc c1d5 c33d 1e1f 153c ab93 83bc
000001d0: f72d 91bd 8d27 a43d 96d9 59bd 94a2 603d
000001e0: fe00 72bc 1221 8bbd 7462 01bc 6ab8 783d
000001f0: 0c49 98bd 3125 88bc 6666 053d a1a7 563d
00000200: 95b9 0d3d 5d23 0a3d b6a2 e4bd cd0b b73c
00000210: 0f28 0f3d 5dbe 72bd 05dc eabd 864a 0fbe
00000220: a376 b3bd 15b7 79bd c16a 05bd 4c4a 173c
00000230: c9e0 243d 0bfc 433d 21db b83d 6c61 5d3d
00000240: 8f66 2b3b ce3f 57be ce88 dd3c 3316 90bd
00000250: c5e9 1ebd 228d c6bb 8f24 d6bd bc57 773c
00000260: 095c 1ebd 9632 3bbc f773 873b 857e 88bd
00000270: 808e c03d afb1 6fbd 62ff 8e3d 7b52 49bd
00000280: d507 bdbd ba0a 533d 55c9 02bc bcc6 d63c
00000290: 87cb 7e3c 45c7 4d3d 190a 413e 6982 ee3d
000002a0: 478b 143c 3a41 013d e353 56bd 645c 24bc
000002b0: 54f3 c83c e62f b13d 2384 253b d53e a93c
000002c0: dab6 22be dc40 e13d d26f 813b dfa1 b43d
000002d0: aa03 913d a37b 03bd c7e8 1a3c d853 2d3d
000002e0: e42e cfbc 02ea 083d 25b7 463d 81cb dd3c
000002f0: e153 193d 58b4 833c d9bd 1f3d a7e4 44bc
00000300: b17b a73d 24d9 733d d620 87bd 5f43 843d
00000310: f7e6 39bc 46c0 f53c 9aeb 833d 6ff5 4ebc
00000320: 65f2 55bd f9b7 803d 7716 03be 9742 9bbc
00000330: 07c8 e93a b888 bbbc ff51 b9bb b3f7 863c
00000340: 86a5 10be 4282 39bd 4e58 03bd c61d 95bd
00000350: 938a 63bb 95c3 e1bc da02 413c 346d 8d3d
00000360: b695 d23d 5faa aa3d 085f 243b 8fa6 ab3d
00000370: b750 3a3d 94d9 c9bd ea11 fabc 3ed8 083d
00000380: f42e 3a3d 0ea5 d0bb f1c9 2dbd 989c 633d
00000390: 1ae8 ad3a 9359 c7bc 9f4c 71bd 2926 efbc
000003a0: 8ce0 a53c 5982 b7bd 10e1 c4bc e15b aebd
000003b0: 89e1 143c bc2e 25bd 8a1c 4bbc ee2c 673d
000003c0: eb2b e53d 0cc2 593c 0db9 e2bc 5339 d8bd
000003d0: 119f 40bc f820 113c 609f 853d 5996 843d
000003e0: 11cb 6b3c 58fa 523d 95ce 85bd e9f4 74bb
000003f0: 1f1a 2f3c 6b8e 1b3d 6736 c53d 9215 1d3d

network_body._body_endoder.seq_layers.2.bias f4 [256]
0.0 0.0 0.0 0.0 0.0 0.0 0.0 0.0
0.0 0.0 0.0 0.0 0.0 0.0 0.0 0.0
0.0 0.0 0.0 0.0 0.0 0.0 0.0 0.0
0.0 0.0 0.0 0.0 0.0 0.0 0.0 0.0
0.0 0.0 0.0 0.0 0.0 0.0 0.0 0.0
0.0 0.0 0.0 0.0 0.0 0.0 0.0 0.0
0.0 0.0 0.0 0.0 0.0 0.0 0.0 0.0
0.0 0.0 0.0 0.0 0.0 0.0 0.0 0.0
0.0 0.0 0.0 0.0 0.0 0.0 0.0 0.0
0.0 0.0 0.0 0.0 0.0 0.0 0.0 0.0
0.0 0.0 0.0 0.0 0.0 0.0 0.0 0.0
0.0 0.0 0.0 0.0 0.0 0.0 0.0 0.0
0.0 0.0 0.0 0.0 0.0 0.0 0.0 0.0
0.0 0.0 0.0 0.0 0.0 0.0 0.0 0.0
0.0 0.0 0.0 0.0 0.0 0.0 0.0 0.0
0.0 0.0 0.0 0.0 0.0 0.0 0.0 0.0
0.0 0.0 0.0 0.0 0.0 0.0 0.0 0.0
0.0 0.0 0.0 0.0 0.0 0.0 0.0 0.0
0.0 0.0 0.0 0.0 0.0 0.0 0.0 0.0
0.0 0.0 0.0 0.0 0.0 0.0 0.0 0.0
0.0 0.0 0.0 0.0 0.0 0.0 0.0 0.0
0.0 0.0 0.0 0.0 0.0 0.0 0.0 0.0
0.0 0.0 0.0 0.0 0.0 0.0 0.0 0.0
0.0 0.0 0.0 0.0 0.0 0.0 0.0 0.0
0.0 0.0 0.0 0.0 0.0 0.0 0.0 0.0
0.0 0.0 0.0 0.0 0.0 0.0 0.0 0.0
0.0 0.0 0.0 0.0 0.0 0.0 0.0 0.0
0.0 0.0 0.0 0.0 0.0 0.0 0.0 0.0
0.0 0.0 0.0 0.0 0.0 0.0 0.0 0.0
0.0 0.0 0.0 0.0 0.0 0.0 0.0 0.0
0.0 0.0 0.0 0.0 0.0 0.0 0.0 0.0
0.0 0.0 0.0 0.0 0.0 0.0 0.0 0.0
00000000: 0000 0000 0000 0000 0000 0000 0000 0000
00000010: 0000 0000 0000 0000 0000 0000 0000 0000
00000020: 0000 0000 0000 0000 0000 0000 0000 0000
00000030: 0000 0000 0000 0000 0000 0000 0000 0000
00000040: 0000 0000 0000 0000 0000 0000 0000 0000
00000050: 0000 0000 0000 0000 0000 0000 0000 0000
00000060: 0000 0000 0000 0000 0000 0000 0000 0000
00000070: 0000 0000 0000 0000 0000 0000 0000 0000
00000080: 0000 0000 0000 0000 0000 0000 0000 0000
00000090: 0000 0000 0000 0000 0000 0000 0000 0000
000000a0: 0000 0000 0000 0000 0000 0000 0000 0000
000000b0: 0000 0000 0000 0000 0000 0000 0000 0000
000000c0: 0000 0000 0000 0000 0000 0000 0000 0000
000000d0: 0000 0000 0000 0000 0000 0000 0000 0000
000000e0: 0000 0000 0000 0000 0000 0000 0000 0000
000000f0: 0000 0000 0000 0000 0000 0000 0000 0000
00000100: 0000 0000 0000 0000 0000 0000 0000 0000
00000110: 0000 0000 0000 0000 0000 0000 0000 0000
00000120: 0000 0000 0000 0000 0000 0000 0000 0000
00000130: 0000 0000 0000 0000 0000 0000 0000 0000
00000140: 0000 0000 0000 0000 0000 0000 0000 0000
00000150: 0000 0000 0000 0000 0000 0000 0000 0000
00000160: 0000 0000 0000 0000 0000 0000 0000 0000
00000170: 0000 0000 0000 0000 0000 0000 0000 0000
00000180: 0000 0000 0000 0000 0000 0000 0000 0000
00000190: 0000 0000 0000 0000 0000 0000 0000 0000
000001a0: 0000 0000 0000 0000 0000 0000 0000 0000
000001b0: 0000 0000 0000 0000 0000 0000 0000 0000
000001c0: 0000 0000 0000 0000 0000 0000 0000 0000
000001d0: 0000 0000 0000 0000 0000 0000 0000 0000
000001e0: 0000 0000 0000 0000 0000 0000 0000 0000
000001f0: 0000 0000 0000 0000 0000 0000 0000 0000
00000200: 0000 0000 0000 0000 0000 0000 0000 0000
00000210: 0000 0000 0000 0000 0000 0000 0000 0000
00000220: 0000 0000 0000 0000 0000 0000 0000 0000
00000230: 0000 0000 0000 0000 0000 0000 0000 0000
00000240: 0000 0000 0000 0000 0000 0000 0000 0000
00000250: 0000 0000 0000 0000 0000 0000 0000 0000
00000260: 0000 0000 0000 0000 0000 0000 0000 0000
00000270: 0000 0000 0000 0000 0000 0000 0000 0000
00000280: 0000 0000 0000 0000 0000 0000 0000 0000
00000290: 0000 0000 0000 0000 0000 0000 0000 0000
000002a0: 0000 0000 0000 0000 0000 0000 0000 0000
000002b0: 0000 0000 0000 0000 0000 0000 0000 0000
000002c0: 0000 0000 0000 0000 0000 0000 0000 0000
000002d0: 0000 0000 0000 0000 0000 0000 0000 0000
000002e0: 0000 0000 0000 0000 0000 0000 0000 0000
000002f0: 0000 0000 0000 0000 0000 0000 0000 0000
00000300: 0000 0000 0000 0000 0000 0000 0000 0000
00000310: 0000 0000 0000 0000 0000 0000 0000 0000
00000320: 0000 0000 0000 0000 0000 0000 0000 0000
00000330: 0000 0000 0000 0000 0000 0000 0000 0000
00000340: 0000 0000 0000 0000 0000 0000 0000 0000
00000350: 0000 0000 0000 0000 0000 0000 0000 0000
00000360: 0000 0000 0000 0000 0000 0000 0000 0000
00000370: 0000 0000 0000 0000 0000 0000 0000 0000
00000380: 0000 0000 0000 0000 0000 0000 0000 0000
00000390: 0000 0000 0000 0000 0000 0000 0000 0000
000003a0: 0000 0000 0000 0000 0000 0000 0000 0000
000003b0: 0000 0000 0000 0000 0000 0000 0000 0000
000003c0: 0000 0000 0000 0000 0000 0000 0000 0000
000003d0: 0000 0000 0000 0000 0000 0000 0000 0000
000003e0: 0000 0000 0000 0000 0000 0000 0000 0000
000003f0: 0000 0000 0000 0000 0000 0000 0000 0000

action_model._discrete_distribution.branches.0.weight f4 [6, 256]
-0.00049171364 -0.006766343 0.008164899 0.0009609772 -0.0049121454 0.00786792 -0.010911752 0.0040410915
-0.008396305 -0.0028085278 7.085273e-06 -0.0073337588 0.005084685 0.004294853 -0.00034471144 -0.002812326
-0.01474077 0.010424041 0.0043427 -0.015233685 0.008378188 -0.0008191381 -0.010102479 -0.005015229
-0.0011937151 -0.0037404906 0.008009746 0.0035375904 0.0028477225 -0.00068241335 -0.0049235485 0.001390351
0.003732829 -0.0019828405 0.0028312013 -0.0018936953 -0.009472568 0.0067666317 0.0041831117 -0.0007885542
0.0029936263 -0.0060208384 -0.005424535 -0.00505433 -0.0053508747 -0.004089256 0.0057809306 0.0017173899
-0.009084253 -0.0014984797 0.0010015537 -0.0072277645 -0.000290664 -0.0026614738 -0.0055325762 -0.0026031442
-0.006198384 0.0006362623 -0.005266494 0.0059719337 -0.006554407 -0.0028941825 0.00028644336 -0.0070130164
0.0053726747 0.0018037001 -0.0022118315 0.012855497 0.0060558515 0.00026059253 0.0053639333 0.0101572415
-5.9616927e-05 -0.005835351 -0.010426969 0.0076068947 0.006347687 0.0045174398 -0.0015274325 0.00073211594
0.0004503214 -0.010194173 -0.006343177 0.00046955698 0.009913436 0.0046011554 -0.004067927 0.0035664265
-0.0010283277 -0.0010475825 -0.0037374885 -0.0059774993 0.00023617972 -0.00037970344 0.0032483642 0.00038737388
0.008121887 0.0013350976 0.0047212276 -0.011614867 0.0014084352 -0.006636904 -0.0090426495 0.006593483
-0.011810181 0.0019462038 0.0062840367 0.0031552003 -0.0014801859 -0.010393246 -3.5513902e-05 -0.0024918178
-0.01155644 -0.0037025677 0.0022936722 -0.008562009 0.008523869 0.010070313 -0.00047624702 0.005006056
-0.00076152734 -0.010627507 -0.00021952076 -0.00873702 0.0069838255 0.0066862055 -0.0011613319 -0.008304886
-0.0053463685 0.010465142 -0.009230471 0.008081578 -0.00083187 0.0011536482 0.0059377938 -0.00077678065
-0.0077559534 0.0077379122 -0.01399407 -0.013022937 -0.005751693 0.0037717763 -0.002163731 -0.013675772
-0.005651494 -0.002509401 -0.0050601023 -0.0033831757 -0.010256988 -0.0058774846 -0.003893931 0.010097987
0.006394428 0.00093501 -0.0035399513 0.0006981261 -0.007079656 0.004043139 0.007824248 0.008894048
0.0043796333 0.005146735 0.0050104395 -0.0011306214 -0.013368006 0.0059421845 0.003132157 0.010873816
0.0025512257 -0.0045799324 0.0052107982 -0.0005259504 0.00077715423 -0.0008937991 0.010728302 -0.0017443402
-0.0008381893 0.002020606 -0.008643839 -0.0047746496 -0.0051491116 2.4989056e-05 0.005744103 -0.0019661838
-0.0056722537 -0.0046682 0.0017028751 0.0071514957 0.0050522774 0.0007747741 -0.0075023756 -0.001027836
0.0019525711 -0.0010687734 0.004681075 -0.0026601607 -0.0048516826 -0.004689709 -0.0094570285 -0.0036371888
0.001318714 -0.007888524 0.008132822 -0.0067170444 -0.003334021 0.0001555582 0.0063092574 -0.0023355247
0.008294645 0.0025182005 0.004609426 0.0024725837 0.0026728294 0.006636345 -0.005474465 -0.0024762321
0.008241425 -0.001707015 -0.0014440388 -0.0028351077 0.00050661893 0.00055418524 0.0063720234 0.005252946
0.012916917 0.0027153369 -0.012520525 -0.0019076978 0.0044403956 -0.0050392435 0.0012073591 -0.0012082808
0.0065383995 -0.007512978 0.0029201298 -0.00070721674 -0.006405146 -0.003970492 0.0053104158 0.006897834
-0.00071178545 0.0037335574 0.0026542991 -0.0050141844 -0.0016109338 0.004584965 0.00357625 -0.0018994771
0.007348412 -0.0056056543 0.0009277356 -0.0086933235 -0.009892401 0.005864906 -0.0007381311 0.0106987115
00000000: 58e6 00ba 33b8 ddbb 12c6 053c 17ea 7b3a
00000010: 10f6 a0bb 73e8 003c 34c7 32bc 226b 843b
00000020: a890 09bc 470f 38bb 08be ed36 0750 f0bb
00000030: 6e9d a63b d7bb 8c3b 63ba b4b9 004f 38bb
00000040: 4583 71bc 99c9 2a3c 354d 8e3b b596 79bc
00000050: ab44 093c 6dbb 56ba de84 25bc ca56 a4bb
00000060: 6f76 9cba 0523 75bb 4f3b 033c ebd6 673b
00000070: dba0 3a3b fce3 32ba b855 a1bb 703c b63a
00000080: 7aa2 743b 8bf2 01bb ad8b 393b df35 f8ba
00000090: d432 1bbc 9fba dd3b 7c12 893b fab6 4eba
000000a0: b730 443b 744a c5bb 4cc0 b1bb cb9e a5bb
000000b0: 6456 afbb 2aff 85bb f66d bd3b 0b1a e13a
000000c0: 1ed6 14bc a368 c4ba 9146 833a e2d6 ecbb
000000d0: 4364 98b9 1f6c 2ebb 9d4a b5bb 8399 2abb
000000e0: d01b cbbb d7ca 263a 8e92 acbb 36b0 c33b
000000f0: 5ac6 d6bb 53ac 3dbb c72d 9639 72cd e5bb
00000100: 430d b03b 226a ec3a 60f4 10bb dd9f 523c
00000110: 2a70 c63b 23a0 8839 efc3 af3b 8f6a 263c
00000120: 300d 7ab8 7936 bfbb e1d5 2abc 4243 f93b
00000130: 4200 d03b 0807 943b 2134 c8ba 78eb 3f3a
00000140: 1d19 ec39 7605 27bc 6dda cfbb df2e f639
00000150: f76b 223c 4ac5 963b 3f4c 85bb b5ba 693b
00000160: f4c8 86ba 094f 89ba a7f0 74bb e6de c3bb
00000170: 03a7 7739 ef12 c7b9 82e2 543b 7118 cb39
00000180: aa11 053c 71fe ae3a 87b4 9a3b 484c 3ebc
00000190: 3e9b b83a 637a d9bb 9f27 14bc 250e d83b
000001a0: 7d7f 41bc c317 ff3a 52ea cd3b 7ac7 4e3b
000001b0: cc02 c2ba 6f48 2abc c3f4 14b8 c44d 23bb
000001c0: 3957 3dbc c7a6 72bb 6f51 163b ab47 0cbc
000001d0: b3a7 0b3c f4fd 243c cbb0 f9b9 d709 a43b
000001e0: 3ca1 47ba ff1e 2ebc 282f 66b9 b825 0fbc
000001f0: 93d8 e43b f517 db3b d537 98ba 3711 08bc
00000200: 9730 afbb fd75 2b3c 673b 17bc 9868 043c
00000210: da11 5aba 0336 973a d391 c23b dea0 4bba
00000220: a725 febb 508e fd3b 6247 65bc 285e 55bc
00000230: b378 bcbb e82f 773b 62cd 0dbb 5810 60bc
00000240: 2b30 b9bb c374 24bb 37cf a5bb 45b8 5dbb
00000250: ed0c 28bc ea97 c0bb 5231 7fbb 0772 253c
00000260: 5a88 d13b 751b 753a 87fe 67bb 7302 373a
00000270: 75fc e7bb 4f7c 843b 4631 003c 57b8 113c
00000280: 0783 8f3b f1a5 a83b 9d2e a43b 5c31 94ba
00000290: 7b05 5bbc a8b6 c23b e044 4d3b 1728 323c
000002a0: 7732 273b 4213 96bb 58bf aa3b efdf 09ba
000002b0: f0b9 4b3a d84d 6aba c3c5 2f3c 58a2 e4ba
000002c0: efb9 5bba 256c 043b e39e 0dbc aa74 9cbb
000002d0: e1b9 a8bb 979f d137 0739 bc3b 17db 00bb
000002e0: 50de b9bb b3f7 98bb 0233 df3a 1857 ea3b
000002f0: 938d a53b 361a 4b3a 7dd6 f5bb 74b8 86ba
00000300: 6aed ff3a 1616 8cba b463 993b 1756 2ebb
00000310: ddfa 9ebb 21ac 99bb a7f1 1abc e75d 6ebb
00000320: b3d8 ac3a de3e 01bc 873f 053c a71a dcbb
00000330: 977f 5abb 561d 2339 e3bd ce3b 9a0f 19bb
00000340: 43e6 073c 6508 253b ab0a 973b 120b 223b
00000350: a32a 2f3b b275 d93b 2463 b3bb 4848 22bb
00000360: 0b07 073c ebbd dfba e745 bdba 37cd 39bb
00000370: 9fce 043a be46 113a 68cc d03b e820 ac3b
00000380: 7aa1 533c cbf3 313b e322 4dbc b70b faba
00000390: bd80 913b 3d20 a5bb 4040 9e3a 2d5f 9eba
000003a0: 1240 d63b 6d2f f6bb a65f 3f3b 8364 39ba
000003b0: 42e2 d1bb e71a 82bb ff02 ae3b 3a07 e23b
000003c0: 1d97 3aba b3ae 743b c0f3 2d3b 074e a4bb
000003d0: f825 d3ba 793d 963b 855f 6a3b e0f7 f8ba
000003e0: f3ca f03b a3af b7bb 4833 733a 716e 0ebc
000003f0: bd13 22bc 662e c03b 247f 41ba a649 2f3c

action_model._discrete_distribution.branches.0.bias f4 [6]
0.0 0.0 0.0 0.0 0.0 0.0
00000000: 0000 0000 0000 0000 0000 0000 0000 0000
00000010: 0000 0000 0000 0000

action_model._discrete_distribution.branches.1.weight f4 [6, 256]
-0.00917782 -0.0023585197 -0.0015255837 0.013817984 0.0015723131 -0.0054696514 0.01159366 0.0015277186
0.004474159 0.01423145 0.0061743283 0.000808408 -0.008803221 -0.0027895267 0.001702632 -0.0007281503
0.013639334 -4.853577e-05 0.0053950488 -0.0044103893 0.0013872501 0.0021896583 -0.014288286 -0.0057261526
-0.0030864605 -0.012652978 -0.0032187153 0.0072877826 0.0032664954 -0.005511509 -0.000518827 -0.0057006455
0.009831546 0.0013589197 0.009625263 -0.00059062196 -0.0036033902 -0.00040307696 0.0069938335 -0.0010458879
-0.001406603 0.0059544034 -0.003896767 -0.0025226723 -0.010306909 -0.0072180345 -0.01076978 -0.001180808
0.0010678478 -0.0035453774 0.0027033358 0.0021717825 0.004649927 -0.0022261997 0.00019023781 -0.011081883
0.00067735097 -0.005530526 -0.0027211367 0.0025533307 0.0041937754 -0.0014422986 -0.010143525 0.0016439072
-0.006519361 0.0038298995 -0.006379233 -0.0015387156 -0.0032342784 0.0057700193 -0.0016981738 0.008934033
0.0023224347 -0.006756857 0.008071962 0.0034118108 0.002236721 0.0048423875 0.0020817562 -0.0012553342
0.00081702817 -0.00620643 -0.009827143 0.00741656 0.00079160085 -0.0022368215 0.008473764 0.0048386976
-0.0025569778 -0.002208599 0.0118420925 -0.011836885 -0.0032615238 -0.0070459093 -0.008407852 0.0074452586
-0.0023174528 -0.0010944086 -0.0013264848 0.003033993 0.006994126 0.0059071644 -0.0029395763 -0.010323488
-0.004466759 -0.001937398 -0.0035259605 0.0067832167 -0.010312623 -0.0056246454 0.0056257583 0.0037519026
-0.005431833 0.009668369 0.0015717692 -0.010576391 0.004102206 0.0077508125 0.0024435706 -0.010345839
-0.00019609621 0.0017054159 -0.0029510665 0.0013607506 -0.005449112 -0.014812483 -0.0033112166 0.002353442
0.0039293077 0.00057385414 0.006792416 -0.00016784138 0.0019895532 0.0017581882 0.0068981224 -0.00059779885
0.0009732991 -0.013443214 0.005266517 0.0003130914 -0.0058931108 -0.0010137863 0.0067291767 -0.005503341
-0.0056022303 0.008604313 0.0031255297 -0.00095642864 0.0024446873 -0.006323024 -0.0009982159 -0.0057569994
0.007213063 -0.0008535655 0.007883838 0.003290663 -0.0016562868 -0.004778822 -0.0053513506 0.005693951
-0.00558244 -0.004423324 -0.0038348269 -0.00054578733 0.011351827 -0.0064186016 0.0070357784 0.00038842444
0.024431223 -0.0056282394 0.0085078385 -0.007549739 0.0015580611 0.0035559647 -0.0009993118 0.008856214
0.0031529206 0.004805449 -0.0008494064 -0.0048956745 -0.0068678274 0.014719355 0.005790002 0.0057746526
-0.012591287 0.0027473005 0.0082879625 0.0018099536 0.0022203273 -0.0065993904 -0.004456369 -0.006246782
-0.0040691583 0.001106385 -0.00614275 0.0017608257 -0.0019318057 -0.00021895043 0.005582172 0.0017247737
-0.007223353 -0.0027896834 -0.006463504 -0.0056754756 0.0055645523 0.0021317021 0.004945801 0.0012183582
0.0042781346 0.0035331843 -0.004511085 -4.4271448e-05 -0.0031107508 0.006194186 -0.0042754738 -0.008217743
-0.003574306 -0.0038228706 -0.0018668904 0.0060327942 0.0067006773 -0.008304278 0.0031799774 0.0033797545
0.00078625977 -0.0072510056 -0.0074403 0.002976291 0.01048527 0.00819496 0.00096407626 -0.002834079
-0.0010213272 0.0048813447 0.0036685814 0.01117816 0.009498081 0.010847786 0.0012238725 0.0143818995
0.0028532536 0.009738205 -0.0088674715 -0.015051921 -0.0032943122 -0.01421498 4.3246273e-05 -0.0025896374
0.010977454 -0.0009594275 -0.0055321464 -0.000564981 -0.0069025196 -0.007851712 -0.012992372 -0.004603588
00000000: 915e 16bc 6591 1abb 18f6 c7ba d364 623c
00000010: 1316 ce3a c33a b3bb 56f3 3d3c bb3d c83a
00000020: f79b 923b 072b 693c 0552 ca3b 58eb 533a
00000030: 633b 10bc 7ed0 36bb da2a df3a 57e1 3eba
00000040: 8377 5f3c e392 4bb8 f3c8 b03b 0785 90bb
00000050: 64d4 b53a 5f80 0f3b 6a19 6abc 73a2 bbbb
00000060: 3746 4abb 704e 4fbc 15f1 52bb 5ace ee3b
00000070: b312 563b e399 b4bb e401 08ba 7bcc babb
00000080: 7e14 213c c71d b23a 47b3 1d3c f8d3 1aba
00000090: db26 6cbb 1354 d3b9 872c e53b 2d16 89ba
000000a0: c45d b8ba 281d c33b e760 7fbb 6b53 25bb
000000b0: 4fde 28bc 4385 ecbb bb73 30bc 57c5 9aba
000000c0: 07f7 8b3a 9059 68bb 732a 313b 7754 0e3b
000000d0: 6a5e 983b 6fe5 11bb 937a 4739 c990 35bc
000000e0: 4190 313a 6a39 b5bb 1955 32bb c855 273b
000000f0: f06b 893b 830b bdba 0731 26bc 5f78 d73a
00000100: 5da0 d5bb 0dff 7a3b e308 d1bb baae c9ba
00000110: 30f6 53bb 6e12 bd3b 4295 deba 0d60 123c
00000120: fd33 183b a068 ddbb 4340 043c b098 5f3b
00000130: f495 123b e4ac 9e3b 136e 083b 078a a4ba
00000140: d52d 563a 4f5f cbbb 0602 21bc 9d06 f33b
00000150: 6f83 4f3a a397 12bb 8bd5 0a3c f08d 9e3b
00000160: f892 27bb 24be 10bb 5605 423c 7eef 41bc
00000170: 4abf 55bb 5fe1 e6bb 16c1 09bc 5bf7 f33b
00000180: 68e0 17bb 4272 8fba 72dd adba f5d5 463b
00000190: fb2e e53b e390 c13b e8a5 40bb d923 29bc
000001a0: e45d 92bb 4af0 fdba cd13 67bb bf45 de3b
000001b0: 47f6 28bc f24e b8bb 4858 b83b 7be2 753b
000001c0: 85fd b1bb 1468 1e3c d303 ce3a 9948 2dbc
000001d0: cc6b 863b 87fa fd3b 5024 203b 9881 29bc
000001e0: 2d9f 4db9 4388 df3a ae66 41bb 375b b23a
000001f0: 778e b2bb 0fb0 72bc ff00 59bb 343c 1a3b
00000200: 6cc1 803b b36e 163a ea92 de3b 94fe 2fb9
00000210: 2a63 023b 0273 e63a a509 e23b 9ab5 1cba
00000220: ff24 7f3a ed40 5cbc bf92 ac3b 6b26 a439
00000230: ff1a c1bb 06e1 84ba 6d80 dc3b 5f55 b4bb
00000240: ea92 b7bb 1bf9 0c3c b0d5 4c3b d7b8 7aba
00000250: 0c37 203b 5f31 cfbb 91d6 82ba 36a5 bcbb
00000260: 8f5b ec3b d0c1 5fba 372b 013c 2aa8 573b
00000270: c317 d9ba aa97 9cbb 625a afbb 5394 ba3b
00000280: e7ec b6bb 88f1 90bb b851 7bbb 2b13 0fba
00000290: 03fd 393c 2253 d2bb 638c e63b 72a5 cb39
000002a0: fd23 c83c 186d b8bb 7664 0b3c cd63 f7bb
000002b0: db37 cc3a 300b 693b 57fb 82ba a719 113c
000002c0: 3ba1 4e3b 0777 9d3b b3aa 5eba e56b a0bb
000002d0: 830b e1bb 7329 713c 0fba bd3b 4c39 bd3b
000002e0: af4b 4ebc 0e0c 343b 3cca 073c f73b ed3a
000002f0: e982 113b b33f d8bb bc06 92bb ceb1 ccbb
00000300: 9356 85bb 1f04 913a 1f49 c9bb 82cb e63a
00000310: a534 fdba 0f96 65b9 a7ea b63b cd11 e23a
00000320: e0b1 ecbb 1fd3 36bb cdcb d3bb 57f9 b9bb
00000330: d956 b63b 07b4 0b3b 6310 a23b 51b1 9f3a
00000340: 982f 8c3b ff8c 673b b9d1 93bb 1bb0 39b8
00000350: bddd 4bbb 99f8 ca3b 4619 8cbb b6a3 06bc
00000360: e73e 6abb 2089 7abb 72b2 f4ba bfae c53b
00000370: 5b91 db3b ab0e 08bc 2b67 503b df7e 5d3b
00000380: 001d 4e3a d899 edbb c3cd f3bb e10d 433b
00000390: 69ca 2b3c 2744 063c 10ba 7c3a f5bb 39bb
000003a0: 0ede 85ba b0f3 9f3b 956c 703b 9a24 373c
000003b0: d79d 1b3c eaba 313c 596a a03a 0fa2 6b3c
000003c0: a7fd 3a3b fe8c 1f3c df48 11bc 559c 76bc
000003d0: 63e5 57bb f3e5 68bc 5563 3538 e8b6 29bb
000003e0: c7da 333c 1782 7bba 0247 b5bb 3c1b 14ba
000003f0: 882e e2bb 78a4 00bc f5dd 54bc b2d9 96bb

action_model._discrete_distribution.branches.1.bias f4 [6]
0.0 0.0 0.0 0.0 0.0 0.0
00000000: 0000 0000 0000 0000 0000 0000 0000 0000
00000010: 0000 0000 0000 0000

action_model._discrete_distribution.branches.2.weight f4 [5, 256]
-0.002856583 -0.009184702 0.0016599391 0.010748491 0.0054084854 0.009569074 0.004640984 0.0016991383
-0.004089104 0.0100917285 -0.0080311885 -0.0017264907 0.0013715116 -0.0020632257 0.004129456 -0.008174266
-0.0073958496 0.0014287995 0.0012381927 -0.0057628886 -0.010311088 0.0036737507 -0.0098465 0.007614337
0.0014760329 0.004434452 -0.0035799367 -0.0028498087 -0.0045276103 -0.0042827507 0.0034181778 -0.0062327357
-0.002451956 -0.013808431 -0.0073596216 -8.459767e-05 -0.00026831956 0.00010090154 0.0023481278 -0.0010600148
-0.0019372208 -0.002460635 -0.007193041 -0.010381984 -0.0014382469 0.004132585 0.004310697 -0.005829675
0.007861923 -0.0059198975 0.0024610662 -0.0042624907 0.0026857888 -0.004132888 0.004857152 -0.00311443
-0.0031402577 0.0059419097 -0.00965511 0.002182948 -0.0031650916 -0.0055173947 -0.0052268007 -0.0051815244
0.001308064 -0.0047900416 -0.0034219138 -0.004794101 -0.011349612 -0.008295308 -0.0056509515 0.002816331
-0.0028525228 0.013950134 0.0021475435 -0.0057336316 0.009276921 0.010672248 -0.006844297 -0.0027262063
-0.008131601 -0.010402958 0.0020443539 0.0020360635 -0.005280379 0.0008146581 -0.00081652234 0.004790252
0.0015052521 0.0019681854 0.0069103613 0.010907048 -0.006182048 0.0092255315 -0.0011395923 0.00028037908
-0.010477972 -0.005554396 0.011929209 0.012768074 -0.0017667387 0.0076676244 0.0047827153 0.0007899819
0.009544018 -0.0116029065 0.002517244 0.0056993444 0.003875338 -0.006423168 0.0069745393 0.00023923682
0.0009319243 -0.0036765726 -0.01122638 0.0053982222 0.006478563 -0.008424195 0.001539839 0.0009026884
-0.0037487186 0.0068025417 0.0051202453 0.012788168 0.0017753317 0.0003845065 0.011894678 -0.0034152605
0.0026148371 0.0003535083 0.0038587686 0.005739856 0.0065763663 -0.0049604382 -0.0046557984 0.0088474285
-0.0014964215 0.014791421 -0.003571355 0.0014839786 0.0025221242 0.0057782 0.0038915498 -0.0024536278
-0.0003094049 0.011293321 -0.005430644 -0.002056879 -0.0075939954 0.0101433555 -0.009378815 -0.009851649
0.003587514 0.001274829 -0.0022781228 0.0011122624 0.006572652 0.0070236563 -0.0007717455 0.0029397185
-0.004413557 0.0022682934 -0.0038272967 0.0068715117 0.0033279439 -0.0076927054 -0.007440813 0.003271687
0.005467212 0.0031956097 0.0025481505 0.00088851724 -0.012097928 0.0019472737 -0.00490141 0.0007724551
0.008623054 -0.010323969 0.0031507348 -0.00485618 -0.0015465766 0.0015187683 -0.0006189214 -0.003092405
0.004701763 -0.002244143 -0.00474547 0.010730727 0.008210803 0.01235352 -0.00031598794 -0.00273847
0.009021795 -0.008836697 0.016427886 -0.0022355437 -0.006937047 0.008170064 0.0073751025 0.010422747
0.0035369531 -0.0012093898 -0.003962775 -0.0020195097 0.0046747574 0.0052140476 0.006377178 0.0039437744
0.009616433 0.004671729 0.0040447563 0.0090513 -0.0039017478 -0.0016280044 -0.00855713 -0.008601385
-0.00919837 0.0142746 0.0007864035 0.00064281886 -0.006618082 0.005088547 -0.00087190577 -0.012855709
0.00556842 0.015795179 -0.0007300705 -0.001449099 -0.0071129384 0.006998812 -0.00893597 0.0075786333
0.0029195289 0.0016565662 0.0007818187 0.004394074 -0.0021977748 0.00020904651 -0.009276593 0.006122441
-0.0010375143 0.0049551553 0.0015862187 -0.0052458923 -0.013136898 0.0072939037 -0.012314849 0.0014614684
0.00394985 -0.0042785234 -0.010138479 0.0036381867 0.0011634453 0.0082222475 -0.00023775948 0.0098302495
00000000: 8335 3bbb 6f7b 16bc 5092 d93a 701a 303c
00000010: aa39 b13b 9bc7 1c3c 6513 983b 9fb5 de3a
00000020: e4fd 85bb c757 253c 3f95 03bc 6a4b e2ba
00000030: 4bc4 b33a 2f37 07bb 6350 873b 5bed 05bc
00000040: e258 f2bb 8e46 bb3a da4a a23a 9dd6 bcbb
00000050: d6ef 28bc 4fc3 703b 3753 21bc b081 f93b
00000060: 7277 c13a e14e 913b 5f9d 6abb dbc3 3abb
00000070: 595c 94bb 5156 8cbb 8203 603b fa3b ccbb
00000080: ffb0 20bb c23c 62bc fb28 f1bb 076a b1b8
00000090: 3ead 8cb9 1a9b d338 0ce3 193b 32f0 8aba
000000a0: 58ea fdba 9b42 21bb 9ab3 ebbb 3219 2abc
000000b0: 8f83 bcba a36a 873b bf40 8d3b dc06 bfbb
000000c0: 4ccf 003c b3fb c1bb d749 213b 5dac 8bbb
000000d0: 0f04 303b 2d6d 87bb be28 9f3b 771b 4cbb
000000e0: c8cc 4dbb 5ab4 c23b 7730 1ebc ca0f 0f3b
000000f0: 6d6d 4fbb 43cb b4bb 9545 abbb c7c9 a9bb
00000100: 5873 ab3a c8f5 9cbb 3042 60bb d617 9dbb
00000110: b9f3 39bc 0be9 07bc 9e2b b9bb 3292 383b
00000120: 64f1 3abb 1a8f 643c cdbd 0c3b 30e1 bbbb
00000130: 3afe 173c a7da 2e3c 2046 e0bb 27aa 32bb
00000140: 683a 05bc 2b71 2abc 91fa 053b 7a6f 053b
00000150: 0807 adbb c88e 553a e30b 56ba 8cf7 9c3b
00000160: e14b c53a acfc 003b 5070 e23b 7ab3 323c
00000170: c792 cabb af26 173c 5f5e 95ba d8ff 9239
00000180: cdab 2bbc a701 b6bb bb72 433c 2f31 513c
00000190: ea91 e7ba b240 fb3b 53b8 9c3b ca16 4f3a
000001a0: 835e 1c3c 1e1a 3ebc 59f8 243b 91c1 ba3b
000001b0: 62f9 7d3b 7079 d2bb ad8a e43b a5db 7a39
000001c0: 624c 743a a7f2 70bb daee 37bc 92e3 b03b
000001d0: 204a d43b a305 0abc 6cd4 c93a 65a2 6c3a
000001e0: 10ad 75bb dbe7 de3b bbc7 a73b 7785 513c
000001f0: 3fb2 e83a 9797 c939 e5e1 423c 90d2 5fbb
00000200: b05d 2b3b 1557 b939 65e3 7c3b 6715 bc3b
00000210: 8f7e d73b 2c8b a2bb ab8f 98bb cef4 103c
00000220: 9323 c4ba b757 723c 650d 6abb 0f82 c23a
00000230: 394a 253b 0e57 bd3b 5f09 7f3b 0bcd 20bb
00000240: 9f37 a2b9 9f07 393c 8bf3 b1bb b4cc 06bb
00000250: 0dd7 f8bb 5130 263c 9aa9 19bc d068 21bc
00000260: 7f1c 6b3b 2a18 a73a 8f4c 15bb 55c9 913a
00000270: 675f d73b b326 e63b f74e 4aba 4ba8 403b
00000280: 999f 90bb a6a7 143b 62d3 7abb 6b2a e13b
00000290: a219 5a3b 1713 fcbb 10d2 f3bb cd69 563b
000002a0: 4c26 b33b 6f6d 513b dffe 263b 62eb 683a
000002b0: 6336 46bc aa3b ff3a 029c a0bb 967e 4a3a
000002c0: b647 0d3c dd25 29bc 8f7c 4e3b 9720 9fbb
000002d0: 80b6 caba 6811 c73a 1d3f 22ba f2a9 4abb
000002e0: 3f11 9a3b 7912 13bb e37f 9bbb eecf 2f3c
000002f0: 9b86 063c 6b66 4a3c 2fab a5b9 e777 33bb
00000300: 27d0 133c cbc7 10bc c693 863c 3382 12bb
00000310: 2b50 e3bb bbdb 053c d8aa f13b 2bc4 2a3c
00000320: 3acc 673b 6384 9eba 2bda 81bb c059 04bb
00000330: b52e 993b 9ada aa3b a5f7 d03b c73a 813b
00000340: 3e8e 1d3c 4e15 993b e089 843b e74b 143c
00000350: 77b4 7fbb c362 d5ba 3433 0cbc d3ec 0cbc
00000360: c3b4 16bc 03e0 693c a526 4e3a d882 283a
00000370: 7fdc d8bb d3bd a63b 9b90 64ba c0a0 52bc
00000380: 4b77 b63b e464 813c 3462 3fba b2ef bdba
00000390: a713 e9bb 4a56 e53b 2d68 12bc 2f56 f83b
000003a0: 9155 3f3b 2321 d93a f7f2 4c3a 2afc 8f3b
000003b0: 8b08 10bb 7f33 5b39 dafc 17bc c29e c83b
000003c0: 34fd 87ba db5e a23b abe8 cf3a bce5 abbb
000003d0: 253c 57bc b301 ef3b 38c4 49bc be8e bf3a
000003e0: be6d 813b db32 8cbb dd1b 26bc a56e 6e3b
000003f0: bf7e 983a 9bb6 063c 134f 79b9 0e0f 213c

action_model._discrete_distribution.branches.2.bias f4 [5]
0.0 0.0 0.0 0.0 0.0
00000000: 0000 0000 0000 0000 0000 0000 0000 0000
00000010: 0000 0000
